Models/LSTM_iteration_50.pt (torch_old, 65558 bytes, 7 tensors)

word_embedding.weight f4 [12, 256]
0	0x3dad3c84	0.08458808
1	0x3f45281f	0.77014345
2	0x3de0bf44	0.10973981
3	0xbe51b824	-0.204804
4	0xbfc882db	-1.5664934
5	0xbe8de310	-0.27712297
6	0x3f3fece0	0.7497082
7	0x3f075f40	0.52879715
8	0x3f56b90c	0.8387611
9	0x4000fb3c	2.0153341
10	0xbf961747	-1.1725854
11	0x3ea79605	0.32731643
12	0xbdc103f6	-0.094245836
13	0xbf3ede71	-0.7455817
14	0xbf48990d	-0.78358537
15	0xbf6f9c65	-0.93598014
16	0xbf636283	-0.8882219
17	0xbf1dbcc7	-0.61616176
18	0xbc9b8793	-0.018985545
19	0xbf6de09d	-0.9292086
20	0xbf795bcd	-0.974057
21	0xbf21f9ef	-0.63271993
22	0xbea75f48	-0.3268988
23	0x3faa7a1d	1.3318516
24	0x3f47f956	0.7811483
25	0xbfcbfc29	-1.5936328
26	0xbf4fc30d	-0.81157
27	0x3fd5577a	1.6667321
28	0x40010dbf	2.016464
29	0xbe56245d	-0.20912309
30	0xbeb5a6ef	-0.35478923
31	0xbeeaa164	-0.45826256
32	0xbf635c16	-0.88812387
33	0x3fbe5dd9	1.487239
34	0x3f7827c4	0.9693568
35	0x3f0ef528	0.5584283
36	0xbef3f304	-0.47646344
37	0xc017e9bf	-2.3736417
38	0xbe2ba0b9	-0.1676053
39	0x3f88bb79	1.0682212
40	0xbf0f897c	-0.5606916
41	0x3d18d708	0.037314445
42	0xbe956307	-0.29177114
43	0xbfe0b549	-1.7555324
44	0x3e2623f5	0.16224654
45	0x3e35a271	0.17737748
46	0xb80e5f88	-3.394441e-05
47	0xbeb296d6	-0.34880704
48	0x3eff01db	0.49806103
49	0xbd19de98	-0.037565798
50	0x3f313515	0.6922162
51	0x3fb21710	1.3913288
52	0x3f35161c	0.7073686
53	0x3df12729	0.11775047
54	0xbada5d7b	-0.001665994
55	0x3d684a50	0.056711495
56	0xc006e452	-2.1076856
57	0x3ec2a3e9	0.3801568
58	0xbf96395b	-1.1736253
59	0xbfbd14ac	-1.4771934
60	0xbf95e186	-1.1709449
61	0xbcf3fb08	-0.029782787
62	0x3fea531c	1.8306613
63	0xbe46c42e	-0.19410774
64	0xbfdf99c4	-1.74688
65	0xbf70ab94	-0.9401181
66	0xbc605a52	-0.013693409
67	0x3f83d8ab	1.0300497
68	0x3f079875	0.52967006
69	0x3fa2c1e9	1.2715427
70	0x3fca1e2e	1.579046
71	0x3f53e830	0.82776165
72	0xbdaa0e57	-0.08303516
73	0xbe0e7468	-0.13911593
74	0xbf366e7d	-0.7126234
75	0xc014148e	-2.3137546
76	0xbf5e7dd5	-0.86910754
77	0xbf9a34e0	-1.2047386
78	0x3eab82f6	0.33498353
79	0x3f8c1803	1.0944828
80	0xbf8580b1	-1.0429899
81	0x3faea6ea	1.3644688
82	0xbfdc6ddf	-1.722103
83	0x3e5ebddf	0.21752118
84	0x3f249c69	0.6430116
85	0xbd9f6030	-0.07782018
86	0x3f141a42	0.57852566
87	0x3f350db2	0.7072402
88	0x3f199531	0.59993273
89	0xbd048c99	-0.032360647
90	0x3ea17d00	0.3154068
91	0xbfa590cf	-1.2934817
92	0x3ef8e122	0.48609263
93	0xbf1dd8a3	-0.61658686
94	0xbf72b9b3	-0.94814605
95	0x3f71120d	0.9416817
96	0xbf00faec	-0.50382876
97	0x40191922	2.392159
98	0x3df5cb94	0.1200172
99	0x3f70e236	0.9409517
100	0xbeb66e2b	-0.35630926
101	0x3f094231	0.53616625
102	0x3efcfbff	0.49411008
103	0x3e969ee7	0.29418108
104	0x3f188df9	0.59591633
105	0x3e5d15e8	0.21590388
106	0x3e4bd25e	0.19904467
107	0x3fd25c47	1.6434411
108	0x3ed7b1f3	0.42127952
109	0x3f1e476d	0.6182774
110	0xbf479c8b	-0.7797324
111	0x3f7619b5	0.96132976
112	0x40068d99	2.1023924
113	0x3f0f5839	0.5599399
114	0xbe909874	-0.28241313
115	0x3e9768b5	0.29572073
116	0x3f997f27	1.1991929
117	0x3edab659	0.42717245
118	0xbed588f1	-0.4170604
119	0x3ec56ffa	0.38561994
120	0x3f992487	1.1964272
121	0x3f8bfd31	1.0936643
122	0x3f969588	1.1764383
123	0xbf347e5f	-0.70505327
124	0xbe3e2de4	-0.18572193
125	0x3f9e4160	1.2363701
126	0x3eb2e71c	0.34941947
127	0x3ec209be	0.37898058
128	0xbf9d987c	-1.231216
129	0xbf9bbbda	-1.2166703
130	0xbe6b2a60	-0.22965384
131	0xbef702bf	-0.48244283
132	0x3e85f40d	0.26162758
133	0xbfc527c4	-1.540276
134	0x3e5b6b8e	0.21427748
135	0xbd1a94bb	-0.037739497
136	0xbff52706	-1.9152534
137	0x3f284153	0.65724677
138	0xbf13ed64	-0.57784104
139	0xbf2950b9	-0.661388
140	0xbf491bcd	-0.78558046
141	0xbdefb1fe	-0.11703871
142	0xbe811435	-0.2521073
143	0x3dd7bba4	0.105338365
144	0x3ec28e53	0.3799921
145	0xbfc0485d	-1.5022084
146	0xbf51d9e6	-0.8197311
147	0xbec7b10d	-0.39002267
148	0x3f7a05b6	0.97664964
149	0xc004d696	-2.0755973
150	0xbf55bc33	-0.83490294
151	0xbf8939c2	-1.0720751
152	0x3f651d57	0.89497894
153	0xbfee6847	-1.8625573
154	0xbd14d354	-0.03633435
155	0x3f230436	0.636783
156	0x3f9e4771	1.2365552
157	0xc019a720	-2.4008255
158	0x3e7ae236	0.24500355
159	0xbe1633bd	-0.14668174
160	0xbf38113a	-0.71901286
161	0x3f133599	0.5750366
162	0x3eb3e742	0.35137373
163	0x3e36b515	0.17842515
164	0xbf954335	-1.1661135
165	0x3eabdfa1	0.33569053
166	0x3dcf137b	0.101111375
167	0x3fa6b8da	1.3025162
168	0xbf015c1e	-0.50531185
169	0xbec3ff6b	-0.38280806
170	0xbe8b8475	-0.27249494
171	0x3ea95937	0.33075878
172	0x3fb4ad12	1.4115317
173	0x3f23be0e	0.63961875
174	0xbf0f4fbc	-0.5598104
175	0xbfdf4bb5	-1.7444979
176	0xbf8d5cb2	-1.1043913
177	0x3fdb1f95	1.7119013
178	0xbf2179dc	-0.6307657
179	0xbfc9ffb2	-1.5781157
180	0xbfd0f242	-1.6323931
181	0xbea36776	-0.31914872
182	0xc0004a48	-2.0045338
183	0xbf71c94a	-0.9444777
184	0xbffa9f1e	-1.9579809
185	0xbfa72418	-1.305789
186	0xbef353f6	-0.47524995
187	0x3fb43654	1.407908
188	0x3e043911	0.12912394
189	0xbf23fcff	-0.64057916
190	0x3f68a9e2	0.9088422
191	0xbf4308bb	-0.76185197
192	0xbf5b9f74	-0.8579018
193	0x3d8df750	0.06931937
194	0x3e37a173	0.17932682
195	0xbd90e919	-0.0707571
196	0x3d1f53ad	0.03889816
197	0x3fa22fbc	1.2670817
198	0x3fc862bd	1.5655133
199	0xc03d3730	-2.9564934
200	0xbf84957c	-1.0358119
201	0xbf983a44	-1.1892781
202	0x3febdd33	1.842688
203	0xbe0ed4e4	-0.13948399
204	0xbf7344f6	-0.950271
205	0x3f5489b8	0.8302264
206	0x3f232210	0.6372385
207	0x3f746b3a	0.95476115
208	0xbec76144	-0.38941395
209	0x3f58870e	0.8458108
210	0x3f7f7eac	0.9980266
211	0xbedfbb82	-0.43697745
212	0xbf00e0b4	-0.5034287
213	0x4008a84d	2.1352723
214	0x3f3d5b9e	0.7396792
215	0xbf693744	-0.91099954
216	0x3ed39b76	0.41329545
217	0x3ea76465	0.32693782
218	0x3f8ea2f7	1.1143483
219	0x3f87b4db	1.0602068
220	0xbe3c94f0	-0.1841619
221	0x3db9b9d6	0.090686485
222	0x3f005b6e	0.5013951
223	0x3fc33c83	1.5252842
224	0x3f970d10	1.1800861
225	0x3e840d99	0.25791624
226	0x3f4efecf	0.8085756
227	0x3f3059f9	0.6888729
228	0x3f0baaee	0.54557693
229	0x3fb9c7d2	1.4514105
230	0xbf02cc5c	-0.5109308
231	0x3d303b23	0.043025147
232	0xbe9e3f8f	-0.30907866
233	0xbe031af0	-0.12803245
234	0xbf588b3d	-0.8458746
235	0x4046a86b	3.1040294
236	0xbf756545	-0.9585765
237	0xbf9e7b85	-1.2381445
238	0x3f044e5b	0.5168206
239	0x3ea60f36	0.3243348
240	0x3ffa26af	1.9543055
241	0x3f27f332	0.6560546
242	0x3f239c73	0.639106
243	0x3d8bb240	0.06821108
244	0xbc427d27	-0.011870659
245	0x3fc46419	1.5343047
246	0x3eb1a7b6	0.34698266
247	0x3e720ea0	0.23638391
248	0xbfaeff54	-1.367167
249	0x3fae6b06	1.3626411
250	0x3ea15933	0.31513366
251	0xbf67f6bc	-0.9061086
252	0xbeba4006	-0.3637697
253	0x3ece43f9	0.40286234
254	0xbed0070d	-0.4063038
255	0xbe037cc6	-0.12840566

lstm.weight_ih_l0 f4 [48, 256]
0	0x3e767439	0.24067773
1	0xbe4e119b	-0.20123903
2	0x3e917cde	0.2841558
3	0x3d9d365c	0.07676384
4	0x3e15c4a5	0.14625795
5	0x3eb22f33	0.34801635
6	0xbe45c2b4	-0.19312555
7	0x3ca359e0	0.019940317
8	0x3d8baa6c	0.06819615
9	0x3e3edc5f	0.18638752
10	0x3e08c998	0.13358152
11	0xbe2ee2b7	-0.17078672
12	0xbe3e70ea	-0.18597761
13	0xbeaab354	-0.33339942
14	0x3e8a897e	0.27058023
15	0x3e77d472	0.24202135
16	0x3dfa0ac6	0.12209086
17	0x3e14b3bf	0.14521693
18	0x3d2620f3	0.040558767
19	0x3e5f2335	0.21790774
20	0xbdd39ff1	-0.10333241
21	0x3c16aa4b	0.009195874
22	0x3dc06538	0.09394306
23	0x3c95f306	0.01830436
24	0x3e8437b2	0.25823742
25	0xbe8c6632	-0.2742172
26	0x3e85a8b5	0.26105276
27	0x3c8544eb	0.016268214
28	0x3dfac284	0.12244132
29	0x3e8b162e	0.2716536
30	0xbda28302	-0.07935144
31	0xbdcad0ce	-0.099031076
32	0x3dd77b42	0.105215564
33	0xbe54273b	-0.2071809
34	0xbe1b2c7b	-0.15153687
35	0xbe38eb0b	-0.18058412
36	0xbded857c	-0.11597726
37	0x3e93e6e3	0.2888709
38	0x3e94c69b	0.29057774
39	0x3e95f9b3	0.29292068
40	0xbdd2fbe5	-0.10301951
41	0xbe485649	-0.19564165
42	0x3e80b8b1	0.25140908
43	0x3dfd1856	0.12358157
44	0xbe5d0dd4	-0.21587306
45	0x3e17663e	0.14785096
46	0x3c6e13d2	0.014531093
47	0xbdd7e4a2	-0.10541655
48	0xbda5ad82	-0.080897346
49	0x3ea3b7e3	0.31976232
50	0x3df8852d	0.12134776
51	0x3e23803a	0.15966883
52	0x3ce4d400	0.02793312
53	0xbd9ecef6	-0.077543184
54	0xbe9cca40	-0.30623055
55	0x3e2c62b6	0.1683453
56	0x3e3eed0b	0.18645112
57	0xbe695181	-0.22784998
58	0x3eaee0c4	0.34155858
59	0x3d282d6a	0.041058935
60	0x3e047dae	0.12938568
61	0x3e2ce573	0.16884403
62	0x3e2110c7	0.15729056
63	0x3e6b9089	0.23004355
64	0x3e95dc53	0.29269657
65	0xbe01854e	-0.12648508
66	0x3d9c2b95	0.076255
67	0x3dd0d79c	0.10197374
68	0xbe85b72f	-0.2611632
69	0xbe7c80b4	-0.24658471
70	0x3e34f9f5	0.17673476
71	0x3e1b9af6	0.15195832
72	0x3d5a2a35	0.053262908
73	0x3e3ccc16	0.18437228
74	0x3bd87017	0.006605159
75	0xbd794779	-0.060859177
76	0x3e193f42	0.14965537
77	0x3e362741	0.17788412
78	0xbd229ab8	-0.039698333
79	0xbc844062	-0.016143981
80	0x3e263c51	0.16233946
81	0xbe61818e	-0.22022077
82	0x3d7225da	0.05911813
83	0x3ea42467	0.32059023
84	0xbe25aa50	-0.1617825
85	0x3e3e3fe3	0.18579058
86	0xbe17765a	-0.14791241
87	0x3cf53555	0.029932657
88	0x3e3d3920	0.18478823
89	0x3e9da27c	0.30788028
90	0xbd9263ca	-0.071479395
91	0x3e27379e	0.1632981
92	0x3d128484	0.035770908
93	0x3e6cd8a7	0.23129521
94	0x3d2f6fe5	0.04283132
95	0x3d4ac976	0.049508534
96	0x3ddd0b38	0.107931554
97	0xbcdc1f65	-0.026870439
98	0x3e6efe21	0.2333913
99	0xbe784b6a	-0.24247518
100	0xbdb3c362	-0.08777501
101	0xbdd4d3c4	-0.103919536
102	0xbdeac9f2	-0.11464299
103	0x3db03bca	0.08605154
104	0xbdfbb652	-0.12290634
105	0x3e1dfa5f	0.1542754
106	0x3e0d1e13	0.13781004
107	0xbe68dc2d	-0.2274024
108	0x3d840d04	0.06447795
109	0xbe33ebfc	-0.1757049
110	0xbe24f36d	-0.16108485
111	0x3d0216c9	0.03176001
112	0x3dea90e4	0.11453417
113	0x3e568a60	0.20951223
114	0xbe354956	-0.17703757
115	0xbd473c20	-0.048641324
116	0xbea58c03	-0.32333383
117	0xbddbf5c8	-0.107402384
118	0xbe76bdbc	-0.24095815
119	0xbe1422df	-0.14466427
120	0x3e6a5a8c	0.22886103
121	0xbea16307	-0.31520864
122	0xbe781a20	-0.24228716
123	0x3d4b1352	0.049578972
124	0x3e232737	0.15932928
125	0xbeaea39e	-0.34109205
126	0xbe83a742	-0.25713545
127	0x3dfc9ab6	0.12334196
128	0xbdc874de	-0.09787916
129	0xbe1aa4a0	-0.15101862
130	0xbe9e1d21	-0.308816
131	0x3e6b7aca	0.22996059
132	0xbe6c3573	-0.23067264
133	0xbe279fed	-0.163696
134	0x3dd30f86	0.10305695
135	0x3e0b0d16	0.1357921
136	0x3d9f59b6	0.07780783
137	0xbe9e48fa	-0.30915052
138	0x3e3d6880	0.18496895
139	0x3e3867b2	0.18008307
140	0xbe9d73bf	-0.3075237
141	0xbe11dd1b	-0.14244501
142	0x3e1b0180	0.15137291
143	0x3dd69247	0.10477119
144	0xbe7bc058	-0.24585092
145	0xbc693556	-0.014233908
146	0xbb5bc500	-0.003353417
147	0x3e193981	0.14963342
148	0xbdccb17b	-0.09994789
149	0xbdac7b47	-0.08421951
150	0x3e1eaf43	0.15496545
151	0x3e0d174b	0.13778417
152	0x3e2a7bdc	0.16648811
153	0x3eb1b597	0.34708855
154	0x3dd08861	0.10182262
155	0xbe88b7ec	-0.2670282
156	0x3e62da8b	0.2215368
157	0x3e5f76f0	0.21822715
158	0xbc1f78bc	-0.009733375
159	0x3e324e31	0.1741264
160	0xbe473cc4	-0.19456774
161	0x3e79d0f6	0.24396119
162	0xbd895402	-0.06705476
163	0x3e32f67f	0.17476843
164	0x3d4d0ae3	0.05005921
165	0x3e07084e	0.13186762
166	0x3ea2098b	0.31647906
167	0xbcfbc2b3	-0.030732488
168	0xbce3869b	-0.027774146
169	0x3e810b35	0.25203863
170	0x3e32a79c	0.1744675
171	0xbe7c3ebd	-0.24633308
172	0x3e47e53d	0.19521041
173	0xbe51914a	-0.2046558
174	0xbea5d9ab	-0.3239263
175	0xbd12b738	-0.035819262
176	0x3dfe49d7	0.124164276
177	0xbe6bf81c	-0.23043865
178	0x3e2231bb	0.15839283
179	0xbd38d60d	-0.04512601
180	0x3e458e55	0.19292577
181	0xbd30cdc7	-0.043164995
182	0x3e431f37	0.19054876
183	0x3da1be2f	0.07897603
184	0x3b9eb471	0.0048432876
185	0x3d6ca7a1	0.05777705
186	0x3e7533fb	0.2394561
187	0x3e12bda2	0.14330152
188	0x3da2a598	0.07941741
189	0xbd4a4976	-0.049386464
190	0xbe4acd16	-0.19804797
191	0xbdde345b	-0.1084983
192	0x3d826ce6	0.06368427
193	0x3d8753b2	0.066077605
194	0xbe0b4ae2	-0.13602784
195	0xbccd6d81	-0.02507663
196	0xbea0d759	-0.31414297
197	0x3e88a220	0.26686192
198	0xbdb96cb0	-0.090539336
199	0xbe15f128	-0.14642775
200	0xbd2178c1	-0.0394218
201	0xbe2b8ca4	-0.16752869
202	0xbe866567	-0.2624924
203	0x3e86b612	0.26310784
204	0xbd605d80	-0.05477667
205	0xbeaff468	-0.34366155
206	0x3dafbdbc	0.08581111
207	0xbe80a31b	-0.2512444
208	0x3e166d87	0.14690219
209	0x3df93247	0.12167793
210	0xbd898d00	-0.06716347
211	0xbdd92349	-0.10602433
212	0x3ea075a8	0.31339765
213	0x3e18e2fc	0.14930338
214	0xbe853588	-0.26017404
215	0xbe3cb3ab	-0.18427913
216	0xbd3f2074	-0.04666181
217	0x3db90bc5	0.09035448
218	0xbbda8314	-0.0066684578
219	0xbd891959	-0.06694288
220	0xbe40a5da	-0.18813267
221	0x3d9e344b	0.07724818
222	0x3e659e9b	0.22423784
223	0x3e537229	0.20649017
224	0xbe150127	-0.14551221
225	0xbe102152	-0.1407521
226	0xbb258476	-0.0025255955
227	0xbe1727a8	-0.14761221
228	0xbdc56d16	-0.09639947
229	0xbe333ff9	-0.17504872
230	0x3d576ff5	0.052597005
231	0x3e547991	0.20749499
232	0x3e91bb62	0.28463274
233	0x3e0359f8	0.12827289
234	0x3e02ace2	0.12761262
235	0xbe18b7a7	-0.14913808
236	0x3ca18783	0.019717937
237	0xbd6bd4e1	-0.057576064
238	0x3dec6ba6	0.1154397
239	0x3e9cbb2f	0.3061156
240	0x3e504460	0.20338583
241	0xbe0f713a	-0.14008036
242	0x3e3922a3	0.18079619
243	0x3d912533	0.07087173
244	0x3e533909	0.20627226
245	0xbe18fb25	-0.14939554
246	0x3bf68aa6	0.0075238524
247	0x3e55b384	0.20869261
248	0x3e1b7a9b	0.15183489
249	0xbd533d41	-0.05157209
250	0xbe7785e9	-0.24172176
251	0x3c0c789d	0.008573678
252	0x3d8667d1	0.0656277
253	0x3df1d458	0.118080795
254	0x3e8646c1	0.26225856
255	0x3c9e633d	0.01933443

lstm.weight_hh_l0 f4 [48, 12]
0	0xbd5fdf58	-0.054656357
1	0x3b2bd430	0.0026219003
2	0xbde071bb	-0.10959192
3	0x3e13c485	0.14430435
4	0x3e089fa6	0.13342151
5	0xbda48037	-0.080322675
6	0x3e1d89df	0.15384625
7	0x3e15db0c	0.14634341
8	0x3e8ee5e0	0.27909756
9	0xbe01128a	-0.12604728
10	0xbec102fe	-0.37697595
11	0x3e43fa01	0.19138338
12	0xbd9823f4	-0.074287325
13	0x3c545751	0.012960271
14	0xbe43fd29	-0.19139542
15	0xbe8c0201	-0.2734528
16	0x3e54cd88	0.20781529
17	0xbb1c092e	-0.0023809182
18	0xbdbf580e	-0.09342967
19	0xbe37b851	-0.17941405
20	0xbdb7190d	-0.08940325
21	0x3e1e79f4	0.15476209
22	0xbe8d098e	-0.27546352
23	0x3dcb4ca3	0.09926727
24	0xbe63d23b	-0.22248165
25	0x3bf65d4e	0.007518447
26	0xbe973e62	-0.29539782
27	0x3db3dc76	0.08782284
28	0x3cafa643	0.021441584
29	0x3eae00e0	0.33985043
30	0xbe5a0133	-0.2128952
31	0x3eaf5d1b	0.3425072
32	0xbe8d2825	-0.2756969
33	0xbccef48c	-0.025263093
34	0xbdfbfdb4	-0.123042494
35	0x3dff5f32	0.12469329
36	0xbdb9e226	-0.090763375
37	0x3d45a3e8	0.048252016
38	0xbe510e53	-0.2041562
39	0x3d60400b	0.054748576
40	0xbe4010e4	-0.18756443
41	0xbe8b1203	-0.2716218
42	0xbe29df6f	-0.1658914
43	0x3e1eb7e0	0.1549983
44	0x3e5236f8	0.20528781
45	0x3e1c9ee0	0.15294981
46	0x3dcc7fb9	0.09985299
47	0x3c76c448	0.0150614455
48	0x3de4c72c	0.111708015
49	0xbd93b221	-0.0721171
50	0xbdd68a74	-0.104756266
51	0xbe4d03a8	-0.20020926
52	0xbe222971	-0.15836121
53	0x3daf2e0b	0.08553704
54	0xbd496ab3	-0.049174022
55	0xbe3473c3	-0.17622285
56	0x3df2ae93	0.11849704
57	0x3dd6d4dc	0.104898185
58	0x3db04787	0.08607393
59	0x3eb8ad5e	0.3606977
60	0xbe082214	-0.1329425
61	0xbe59c6d6	-0.21267256
62	0x3e9f8e94	0.31163466
63	0x3de7bec8	0.113156855
64	0x3db6d4cf	0.08927309
65	0xbb1b5e5e	-0.002370737
66	0x3d1fe8f5	0.039040525
67	0xbc779e48	-0.015113421
68	0x3e1b4d35	0.15166171
69	0xbd9f23b7	-0.07770484
70	0xbe5de16e	-0.21668026
71	0x3dac6371	0.084174044
72	0x3e90bba0	0.28268147
73	0x3e6a9e4f	0.22911952
74	0xbe7136b6	-0.23556027
75	0x3c284762	0.010270925
76	0xbccc34b1	-0.024927469
77	0xbe9360e8	-0.2878487
78	0xbe566d52	-0.2094014
79	0x3e7d4a2b	0.24735324
80	0xbda4c677	-0.08045667
81	0xbca79228	-0.020455435
82	0xbdbdaaf7	-0.092611246
83	0x3d838b58	0.06423062
84	0xbddb19ee	-0.10698305
85	0xbe093943	-0.1340075
86	0x3e0d9f0f	0.13830207
87	0x3d58d8f2	0.05294127
88	0xbe1d0d99	-0.15337218
89	0x3d91a4c5	0.071115054
90	0x3e65ca20	0.22440386
91	0x3e73d151	0.23810317
92	0xbea4e2d6	-0.32204312
93	0x3e9b74c6	0.3036253
94	0xbe438968	-0.19095385
95	0x3e164372	0.14674166
96	0x3dc5b132	0.09652938
97	0x3e23b1a2	0.1598573
98	0xbea8f076	-0.32995957
99	0xbd431b4b	-0.04763345
100	0xbe7b8b3c	-0.24564832
101	0x3e5461b1	0.20740391
102	0x3d903399	0.070410915
103	0xbe8dff64	-0.2773391
104	0xbdb875e3	-0.0900686
105	0x3de470c8	0.11154324
106	0x3d004fc8	0.031326085
107	0xbd80a740	-0.062819004
108	0xbe8212fe	-0.25405115
109	0xbdafdfe0	-0.08587623
110	0xbd5fd765	-0.054648776
111	0x3e2f977d	0.17147632
112	0x3d6e8c26	0.058239125
113	0xbe064475	-0.13112052
114	0xbe8ae6a7	-0.271291
115	0x3c1c9008	0.009555824
116	0x3dae2453	0.08503022
117	0x3e20d01d	0.15704389
118	0xbcecbc2c	-0.028898321
119	0xbe0035c0	-0.12520504
120	0xbe689eba	-0.227168
121	0xbea3b285	-0.31972137
122	0x3daf1253	0.08548417
123	0xbd2986af	-0.04138821
124	0x3e463789	0.19357122
125	0xbe8fe512	-0.28104454
126	0x3e195437	0.14973532
127	0x3e06904f	0.13140987
128	0xbdd55b76	-0.104178354
129	0xbdf01acd	-0.11723862
130	0xbd0508e2	-0.032479174
131	0xbe11a8a1	-0.14224483
132	0x3e6b18a7	0.22958623
133	0x3ded1ae2	0.11577393
134	0x3e053618	0.13008916
135	0x3d892329	0.066961594
136	0xbd5b0bb8	-0.053477973
137	0xbe054618	-0.1301502
138	0x3e44c44b	0.19215505
139	0xbd9bfa06	-0.076160476
140	0xbe9a9b55	-0.30196634
141	0xbe1c9c59	-0.15294017
142	0x3d5d9c46	0.054104112
143	0x3e776e72	0.24163225
144	0xbe3426c5	-0.17592914
145	0x3e0c9ca4	0.13731629
146	0xbd9a5b7f	-0.07536983
147	0xbeb9dab9	-0.36299685
148	0x3e036fdb	0.12835638
149	0x3dfec32a	0.12439568
150	0x3dd96a6f	0.10616004
151	0x3e58a963	0.21158366
152	0x3da982d9	0.0827691
153	0xbd677c9e	-0.05651533
154	0xbdfc33ad	-0.12314544
155	0x3ea36384	0.31911862
156	0xbe2551ae	-0.1614444
157	0x3ebfeac9	0.37483814
158	0xbe4f0614	-0.20217162
159	0xbe0470c0	-0.12933636
160	0x3e3ff442	0.1874552
161	0xbeb29a0a	-0.34883147
162	0xbc5b0119	-0.013366961
163	0xbe57f2e2	-0.21088746
164	0x3d5d7f92	0.05407674
165	0xbe9118a8	-0.28339124
166	0xbe8a0a56	-0.2696101
167	0x3daf470a	0.085584715
168	0xbddedb2f	-0.1088165
169	0x3de3975a	0.111128524
170	0x3e6302e3	0.2216907
171	0xbe37668f	-0.17910217
172	0x3e5f104b	0.21783559
173	0xbe614847	-0.22000228
174	0x3e4231f4	0.18964368
175	0x3d9fe67a	0.07807632
176	0xbd8c64e9	-0.068551846
177	0xbe531e4c	-0.20617026
178	0xbdda4d8d	-0.10659323
179	0xbdcee211	-0.101017125
180	0xbd72c755	-0.05927213
181	0xbeaddcfe	-0.33957666
182	0xbe530176	-0.20606026
183	0xbe9e4640	-0.30912971
184	0xbe285fe6	-0.16442832
185	0xbe572c24	-0.21012932
186	0xbe226563	-0.15858988
187	0xbe13d07d	-0.14435
188	0xbe365b31	-0.17808224
189	0xbe1a561a	-0.15071908
190	0x3e19e872	0.15030077
191	0x3dd97e38	0.106197774
192	0xbc3b91e8	-0.011448361
193	0x3c3d9cda	0.011573041
194	0x3df9dc62	0.12200238
195	0xbe1b3885	-0.15158279
196	0xbe676f8c	-0.22601146
197	0x3e53fa76	0.20701012
198	0x3e587d37	0.21141516
199	0x3e1cea8e	0.1532385
200	0x3e1b6d93	0.15178518
201	0xbdb7ca3e	-0.089741215
202	0xbe0675e5	-0.1313091
203	0x3d44c580	0.048039913
204	0xbe2c2f51	-0.16814925
205	0xbdfe9bd5	-0.12432066
206	0x3d1bc483	0.038029205
207	0xbe9d5453	-0.30728397
208	0x3da0754d	0.07834873
209	0xbe05e5d5	-0.13075955
210	0x3c3a9299	0.011387491
211	0xbe470eb3	-0.19439201
212	0xbe3ced7e	-0.18449971
213	0xbd687daf	-0.056760486
214	0xbddc5e14	-0.107601315
215	0x3ddba02c	0.1072391
216	0xbe436202	-0.19080356
217	0x3e1a403e	0.15063569
218	0xbdc68550	-0.09693396
219	0x3ea8174d	0.32830277
220	0x3e0a2817	0.13491856
221	0xbe1ea1bb	-0.15491383
222	0xbe815d74	-0.25266612
223	0x3dbb2a26	0.091388986
224	0x3e867e5d	0.26268283
225	0x3d467a32	0.04845638
226	0x3dc18a1f	0.09450173
227	0x3e086e7f	0.13323401
228	0x3da0f8e8	0.07859975
229	0x3dee9b9a	0.116507724
230	0xbe530c73	-0.20610218
231	0xbb19b8f5	-0.002345619
232	0x3e16fe0f	0.14745353
233	0x3e8e577e	0.27801126
234	0xbd7267bc	-0.05918096
235	0xbdb943d2	-0.09046139
236	0xbe452c93	-0.19255285
237	0x3d91b4f2	0.07114591
238	0x3cbdc96c	0.023167334
239	0x3de9c81d	0.11415122
240	0x3df68eac	0.12038931
241	0x3da7f8f7	0.08201783
242	0x3e5a736d	0.21333094
243	0x3de4d6e5	0.111738004
244	0xbe7d50b5	-0.24737819
245	0x3e764301	0.24048997
246	0xbd5c985a	-0.05385623
247	0x3bb01ace	0.005374289
248	0x3e11fd05	0.14256676
249	0x3e8d19c8	0.27558732
250	0x3ea6c0fb	0.32569107
251	0xbe04f0ad	-0.12982436
252	0x3d922491	0.07135881
253	0xbe9ddfc7	-0.3083479
254	0x3e1d87f0	0.15383887
255	0xbde49e37	-0.111629896

lstm.bias_ih_l0 f4 [48]
0	0x3dec300a	0.115326
1	0x3d1f2b9e	0.038859956
2	0xbe71215c	-0.23547882
3	0x3dc87038	0.09787029
4	0xbe0c67a2	-0.13711408
5	0x3e46c245	0.19410045
6	0xbda1755d	-0.078837134
7	0xbe937230	-0.28798056
8	0x3e052b2d	0.13004752
9	0xbe62c411	-0.22145106
10	0x3d86435e	0.06555818
11	0xbe49dac9	-0.19712366
12	0xbe852b9e	-0.2600984
13	0x3ec87b8e	0.39156765
14	0xbe6b4395	-0.22974999
15	0xbe969f40	-0.29418373
16	0xb9b077fe	-0.00033658737
17	0x3ec1438c	0.37746847
18	0x3dbb69dc	0.091510504
19	0x3d7c5bd1	0.061611
20	0x3e5587ae	0.20852539
21	0x3e20e596	0.1571258
22	0xbdb636c9	-0.08897168
23	0x3d48caae	0.049021415
24	0x3e8b2a67	0.27180788
25	0x3d180e2a	0.037122883
26	0x3e0030db	0.12518637
27	0xbe1e2a1f	-0.15445755
28	0x3e44cdf2	0.19219187
29	0x3e0e163a	0.13875666
30	0x3e5c8a9f	0.21537255
31	0xbe24f681	-0.16109659
32	0x3d9e01ba	0.07715173
33	0x3e00a875	0.12564261
34	0x3e1f3e38	0.15551078
35	0xbe55ad6a	-0.20866933
36	0x3e70bc88	0.23509419
37	0x3c8dc772	0.017307017
38	0x3d739772	0.0594706
39	0xbe77a7c2	-0.24185088
40	0x3e6c2e65	0.23064573
41	0x3e8738f7	0.26410648
42	0x3e9b6136	0.30347604
43	0xbdb3eff8	-0.08786005
44	0xbe8868ab	-0.26642355
45	0xbe4552ad	-0.1926982
46	0x3e7e8d42	0.24858573
47	0xbd715a67	-0.058924105

lstm.bias_hh_l0 f4 [48]
0	0x3e2ab188	0.16669285
1	0xbe5c18f2	-0.21493891
2	0xbe38ec4a	-0.18058887
3	0x3cdd746d	0.027033055
4	0x3e4f15ee	0.2022321
5	0xbe3ee2cb	-0.18641202
6	0x3d9197c2	0.07109024
7	0xbe9ea89d	-0.30988017
8	0xbe9f202f	-0.31079242
9	0xbe40295c	-0.18765777
10	0x3e48d2bf	0.19611643
11	0x3d50410c	0.050843284
12	0xbd8f4538	-0.06995624
13	0x3e4bf3fb	0.1991729
14	0xbd877e18	-0.06615847
15	0xbdf95bd6	-0.121757194
16	0xbe32e9bf	-0.1747198
17	0xbcd54a1f	-0.02603632
18	0x3e9a8204	0.3017732
19	0xbd547d42	-0.051877268
20	0x3d2e6d01	0.042584423
21	0x3e0130d5	0.12616284
22	0x3de14d68	0.11001092
23	0x3dc76ab6	0.0973715
24	0x3e55e74a	0.20889011
25	0x3dbb09ed	0.091327526
26	0xbe91e56a	-0.28495342
27	0xbe37c4ac	-0.17946118
28	0x3e63b9e8	0.22238886
29	0xbe713452	-0.23555115
30	0xbd2076f4	-0.039175943
31	0x3d56cfb6	0.052444182
32	0x3e189658	0.14901102
33	0xbd13e753	-0.03610928
34	0xbe82372f	-0.25432727
35	0xbdb1ae3d	-0.086758114
36	0xbe67a943	-0.22623162
37	0xbd780f54	-0.060561493
38	0xbe200c4d	-0.15629692
39	0xbe271c67	-0.16319428
40	0xbdc37997	-0.09544676
41	0x3e88702d	0.26648083
42	0x3e69c5e8	0.22829401
43	0x3d6ea7dd	0.058265556
44	0x3e47b565	0.1950279
45	0x3b682b15	0.003542607
46	0x3e587bc4	0.21140963
47	0x3e97a906	0.29621142

hidden2label.weight f4 [4, 12]
0	0xbe85458d	-0.26029626
1	0xbe8294b5	-0.2550408
2	0x3e24ebf1	0.1610563
3	0xbd9d0203	-0.07666399
4	0xbe913b79	-0.28365687
5	0x3ea40833	0.32037506
6	0xbd15a704	-0.03653623
7	0x3dd8a427	0.105781846
8	0xbd4e4212	-0.05035598
9	0x3e444bfa	0.19169608
10	0xbccadb12	-0.024762664
11	0x3e0e2fc5	0.1388541
12	0x3eb6b02a	0.35681278
13	0x3eadd086	0.33948153
14	0x3cdb48b6	0.02676807
15	0x3e742041	0.23840429
16	0xbe096cde	-0.13420436
17	0xbdf60cea	-0.12014182
18	0xbeb0d0ea	-0.3453439
19	0x3e4836c5	0.19552143
20	0xbe06d4aa	-0.13167062
21	0x3e388ed9	0.18023242
22	0x3dacad49	0.08431489
23	0xbe77df7a	-0.24206343
24	0xbe5026e0	-0.2032733
25	0x3e3402d9	0.17579211
26	0x3e1dfd67	0.15428697
27	0x3e2bb6bd	0.16768928
28	0xbd5a7b89	-0.05334047
29	0x3e30aab5	0.1725262
30	0x3c9eccfb	0.019384852
31	0x3e63fe27	0.2226492
32	0x3da6510f	0.081209294
33	0x3dc852e0	0.09781432
34	0xbe0c14e5	-0.13679846
35	0x3dc14cb3	0.09438457
36	0x3d6f4716	0.058417402
37	0x3dca9cc9	0.09893186
38	0xbccff758	-0.025386497
39	0xbdaa2aa8	-0.08308917
40	0xbe15a1fe	-0.14612576
41	0x3e009946	0.12558469
42	0x3e03c059	0.12866344
43	0x3d34274e	0.043982796
44	0x3e0b3f9c	0.13598484
45	0x3e206a10	0.1566546
46	0x3d3fd0ea	0.046830095
47	0xbd43bcde	-0.04778754

hidden2label.bias f4 [4]
0	0x3c2bcc52	0.0104857255
1	0xbceb3714	-0.028712787
2	0x3e4b5c09	0.19859327
3	0x3e800794	0.25005782
