Models/LSTM_iteration_0.pt (torch_old, 99902 bytes, 7 tensors)

word_embedding.weight f4 [18, 256]
0	0xbf5cbb76	-0.8622354
1	0xbeb8e213	-0.3610998
2	0x3f11e453	0.5698902
3	0x3ee7b026	0.45251578
4	0x3f5b73ac	0.85723376
5	0xbf3172bf	-0.69315714
6	0xbe93fb6f	-0.28902766
7	0x3f99a1c5	1.2002493
8	0x3fe3b296	1.7788875
9	0xbf522c5a	-0.82098925
10	0x3db08f3c	0.0862107
11	0x3eb7de7e	0.35911936
12	0x3e1f41bd	0.15552421
13	0xbfcd2e4e	-1.6029756
14	0x3fbfa4ea	1.4972203
15	0xbf5a7f4b	-0.85350484
16	0x3eddd86d	0.43329182
17	0xbf0f8f03	-0.56077594
18	0x3f8e4b63	1.1116756
19	0x3fe0cf06	1.7563179
20	0xbf327700	-0.6971283
21	0x3f450310	0.769578
22	0x3ef4e671	0.47832063
23	0xbf55cfb4	-0.83520055
24	0xbf4f8834	-0.81067204
25	0xbd30544f	-0.043049153
26	0xbe969e1c	-0.29417503
27	0xbf92f91f	-1.1482276
28	0xbf56c8aa	-0.8389994
29	0xbfa898f6	-1.317168
30	0xbe70eb46	-0.2352725
31	0xbdaceda1	-0.084437616
32	0xbf8c7dac	-1.0975852
33	0xbebc681a	-0.36798173
34	0x3ed7d89b	0.42157444
35	0x40147f02	2.320252
36	0xbf0e8757	-0.5567526
37	0x3b53a95e	0.0032296996
38	0x3f737a1b	0.95108193
39	0xbd5db682	-0.05412913
40	0xbf245c23	-0.6420309
41	0x3f49a2a4	0.78763795
42	0xbf36c930	-0.7140074
43	0xbf22a25e	-0.63529
44	0x3ec30ff1	0.380981
45	0x3fd7a417	1.6846951
46	0x3f1a31d5	0.6023229
47	0x3d95bf95	0.07311932
48	0xbfd44d9f	-1.6586188
49	0xbe254107	-0.16138087
50	0x3f3a62f3	0.72807235
51	0xbe8b9efa	-0.27269727
52	0x3fc37746	1.5270774
53	0xbde0a05e	-0.109680876
54	0x3e61aadc	0.22037834
55	0xbf27b951	-0.65517145
56	0xbf8dbc06	-1.1073005
57	0xbec296f3	-0.3800579
58	0xbe415914	-0.18881637
59	0xbecefe2a	-0.40428287
60	0x3f25f570	0.6482763
61	0x3f8fed2c	1.1244254
62	0xbf609fdc	-0.87743926
63	0xbe4d1e6c	-0.20031136
64	0xbf8def0a	-1.1088574
65	0x3fadb151	1.3569738
66	0x3ec0d424	0.3766185
67	0x3d92c80b	0.071670614
68	0x4014332f	2.315624
69	0xbf5df041	-0.86694723
70	0xbec39675	-0.38200727
71	0x3e81f1d6	0.2537982
72	0x3e657cc9	0.22410883
73	0xbf65718e	-0.89626396
74	0x3f8adfed	1.0849587
75	0x3f4be0f5	0.7964013
76	0xbedbcc87	-0.4292948
77	0xba2d2370	-0.0006604707
78	0x3ef47aca	0.4774993
79	0xbf34a419	-0.70562893
80	0xbfdce462	-1.7257197
81	0x3f5479ed	0.82998544
82	0x3f7e6fe9	0.9938951
83	0x3f193c22	0.5985738
84	0x3b943588	0.004522983
85	0x3eefe13e	0.46851534
86	0x3fa4d2b8	1.2876806
87	0x3f419f68	0.7563386
88	0xbe127ede	-0.14306208
89	0xbfbb13dd	-1.4615437
90	0x3d10f016	0.035385214
91	0xbfa635ea	-1.2985203
92	0xbfa8a0b7	-1.3174046
93	0x3cd94168	0.026520446
94	0xbee924a8	-0.4553578
95	0xbf0d55ae	-0.5520886
96	0xbfee0b55	-1.8597208
97	0xbf8c9633	-1.0983337
98	0x3f2ffeac	0.68747973
99	0x3eaebd90	0.34129
100	0x3f20c812	0.62805283
101	0x3f02a9c0	0.5104027
102	0xbede40cf	-0.4340882
103	0xbe9992f3	-0.29994926
104	0xbfbe2224	-1.4854169
105	0xc0028974	-2.0396395
106	0xbf51e6d0	-0.81992817
107	0x401c440d	2.4416535
108	0x3e87c9ef	0.2652125
109	0x3f4b7a47	0.79483455
110	0xbfd4a234	-1.6612
111	0xbee69cdd	-0.45041552
112	0x3e3f1522	0.18660405
113	0x3dd751fb	0.105136834
114	0xbe4a8781	-0.19778253
115	0x3fb9db77	1.45201
116	0xbf238d93	-0.638879
117	0x3e772315	0.24134476
118	0x3fd6cbf2	1.6780989
119	0x3eb60770	0.3555255
120	0xbdd699fa	-0.104785874
121	0x3ff13cb1	1.8846647
122	0xbf00decb	-0.50339955
123	0x3fb8ec68	1.4447145
124	0x3f09ee98	0.5387969
125	0xbf632d3e	-0.8874091
126	0xbfa08de0	-1.2543297
127	0x3f069a82	0.5257951
128	0x3fa3d791	1.2800161
129	0x3f5b1291	0.85575205
130	0x3ebb86d3	0.366263
131	0x4028f5c9	2.6400015
132	0xbf6e1e0d	-0.93014604
133	0xbca5f84e	-0.020260002
134	0xbfb69bfa	-1.426635
135	0x3ff5b26d	1.9195076
136	0x3efed4ea	0.49771816
137	0xbf370b89	-0.71501976
138	0xbdeba6cb	-0.115064226
139	0xc00522db	-2.0802524
140	0xbed0e5b2	-0.40800244
141	0xbe42bc33	-0.19017105
142	0x3f16f252	0.589635
143	0xbf6291a8	-0.88503504
144	0x3c5bf8ea	0.013426045
145	0x3f495843	0.786503
146	0x3bea22a1	0.0071452414
147	0xbfb312fe	-1.3990171
148	0xbe90bcca	-0.28269035
149	0x3f5e5882	0.868538
150	0xbca06989	-0.019581573
151	0x3fe17010	1.7612324
152	0xbfede28f	-1.8584765
153	0xbf86bdf6	-1.0526721
154	0x3f0b25f1	0.5435477
155	0xbe406eae	-0.18792221
156	0x3f8c0019	1.093753
157	0xbf11392a	-0.5672785
158	0xbecc0152	-0.39844757
159	0x3ef6c862	0.48199755
160	0xbf870818	-1.0549345
161	0xbed86535	-0.42264715
162	0xbf0a3749	-0.5399061
163	0xbec0df02	-0.3767014
164	0xbf878c02	-1.0589602
165	0x3e0b5bb9	0.13609208
166	0xbf05085a	-0.5196587
167	0x3ed3ec07	0.41391012
168	0x3ff183a5	1.88683
169	0x3f7054ca	0.9387938
170	0x3fa5c738	1.2951422
171	0xbf9bfdb5	-1.21868
172	0xc00ad85c	-2.1694555
173	0xbffdd614	-1.9830956
174	0xc01aa3fe	-2.4162593
175	0xbf0bcfa6	-0.5461372
176	0x3ec80b42	0.3907109
177	0xbe97dde3	-0.29661474
178	0x3e840cc5	0.25790992
179	0xbf9cb4c0	-1.224266
180	0x3e7c676a	0.24648824
181	0xbdc944a0	-0.09827542
182	0x3ecc9998	0.39960933
183	0x3d3781b1	0.044801418
184	0xbfc22db6	-1.51702
185	0x3f8eee56	1.1166484
186	0xbf96ddeb	-1.1786474
187	0x3f8e550c	1.1119704
188	0xbb08b972	-0.0020862487
189	0xbd8aff19	-0.06786937
190	0xbd2f59c4	-0.042810217
191	0x3faadb10	1.3348103
192	0xbf074720	-0.52842903
193	0x3f5bdaf7	0.8588099
194	0xbe1a98a4	-0.1509729
195	0x3fcd9c36	1.6063297
196	0xbff0e3cb	-1.8819517
197	0xbf814ca1	-1.010151
198	0xbf26e560	-0.6519375
199	0x3d05979f	0.0326153
200	0x3f7e2e35	0.99289256
201	0x3f9679a8	1.1755877
202	0x40055137	2.083082
203	0x3f59d606	0.850922
204	0xbd685a35	-0.056726653
205	0x3e07bec9	0.13256373
206	0xbe739c86	-0.23790178
207	0x3f9a9dfb	1.2079462
208	0xbf00920e	-0.5022286
209	0xbee5f1f3	-0.44911155
210	0x3e808832	0.2510391
211	0xbfd076e6	-1.6286285
212	0xbed7cccb	-0.42148432
213	0x3cf03735	0.0293232
214	0xbf29ce2e	-0.6633023
215	0x3f083ae1	0.5321484
216	0xbec08de7	-0.37608263
217	0xbf2a6720	-0.66563606
218	0x3f0ef668	0.55844736
219	0xbb13667a	-0.00224915
220	0xbffd8160	-1.9805107
221	0x3fb5aff0	1.4194317
222	0x3e3e8419	0.18605079
223	0xbf4384ee	-0.7637471
224	0x3f7d25ad	0.98885614
225	0xbe9e6ff7	-0.30944797
226	0x3f1d4ac0	0.61442184
227	0xbf0081b7	-0.5019793
228	0x3ddd07b9	0.107924886
229	0xbf438a1a	-0.763826
230	0xbf19ab2f	-0.6002683
231	0x3f647678	0.8924327
232	0x3fbea65f	1.4894522
233	0xbf18646a	-0.5952822
234	0xbecc0f75	-0.39855543
235	0xbf18b37b	-0.59648865
236	0xbdfe90d1	-0.12429965
237	0x3fc128a8	1.5090532
238	0x3fb8cec0	1.4438095
239	0xbf58c38c	-0.8467338
240	0x403835a4	2.878274
241	0x3cf70f5a	0.030158687
242	0x39cbfe69	0.00038908728
243	0x3f124b83	0.5714647
244	0x3f0ed27f	0.5578994
245	0x3f91160a	1.1334851
246	0xbed1529b	-0.40883335
247	0x3e8585e4	0.26078713
248	0xbf06d31a	-0.52665865
249	0x3fa6fc72	1.304579
250	0x3f87d5cf	1.0612124
251	0xbd894a58	-0.06703633
252	0x3fa341c5	1.2754446
253	0xc02503d9	-2.5783598
254	0x3f92e94c	1.1477447
255	0xbefdfc42	-0.4960652

lstm.weight_ih_l0 f4 [72, 256]
0	0xbe4d3178	-0.20038402
1	0xbdc6d38d	-0.09708319
2	0x3ca55bac	0.020185314
3	0xbde5373d	-0.111921765
4	0x3deeb850	0.116562486
5	0x3dd4e93c	0.103960484
6	0xbdcfd693	-0.10148349
7	0x3dac530d	0.08414278
8	0xbde1b239	-0.110203214
9	0xbe4ad426	-0.1980749
10	0x3e4e5695	0.20150216
11	0xbe3a2f5f	-0.18182133
12	0x3d5605a8	0.052251488
13	0x3d16ff24	0.036864415
14	0xbdb4e737	-0.08833163
15	0x3e4b0441	0.19825841
16	0xbdd7c7c3	-0.105361484
17	0x3e2375bb	0.1596288
18	0x3e17bc32	0.14817885
19	0xbbe0b3d8	-0.0068573765
20	0xbe607802	-0.2192078
21	0xbcf76ab3	-0.030202245
22	0x3d8f6288	0.07001215
23	0x3ab9a0d0	0.0014162306
24	0xbd12df02	-0.035857208
25	0x3e72cae2	0.23710206
26	0x3e4099a0	0.18808603
27	0x3e42da7e	0.1902866
28	0x3e65b608	0.2243272
29	0x3e7631d2	0.24042442
30	0xbe7a214e	-0.24426767
31	0x3e6a010a	0.22851959
32	0x3e5bc51c	0.2146191
33	0x3e4e9184	0.20172697
34	0x3dd70e45	0.105007686
35	0x3e424b77	0.189741
36	0xbdb703b6	-0.08936255
37	0x3e739e42	0.2379084
38	0xbe281054	-0.16412479
39	0x3e169f9c	0.14709324
40	0x3e04e23a	0.12976924
41	0xbb96415c	-0.004585428
42	0x3d46d304	0.048541084
43	0x3e668582	0.22511867
44	0x3e320179	0.17383374
45	0xbc477890	-0.01217474
46	0x3e5dddaf	0.21666597
47	0x3e20c3ce	0.15699694
48	0xbd116dfa	-0.035505272
49	0x3e1715f4	0.14754468
50	0xbe0a373f	-0.13497637
51	0xbdd215fe	-0.10258101
52	0x3e053c6e	0.13011333
53	0x3d82ebd6	0.063926384
54	0xbaa24ca8	-0.0012382464
55	0xbdf0e870	-0.11763084
56	0xbe3fa603	-0.18715672
57	0x3e4ead45	0.20183285
58	0xbd61f1f2	-0.055162378
59	0x3e105f80	0.1409893
60	0x3e5eb724	0.2174955
61	0xbe3f4f22	-0.1868253
62	0xbdd0b996	-0.10191648
63	0x3e277ab9	0.16355409
64	0x3da83cd8	0.0821473
65	0xbd710f87	-0.0588527
66	0x3d1929de	0.037393443
67	0x3e497c8a	0.19676414
68	0x3e2ae816	0.16690096
69	0x3db4de4c	0.08831462
70	0xbd6f0a38	-0.058359355
71	0xbd801eac	-0.0625585
72	0x3df020d5	0.11725012
73	0xba2ce7b0	-0.00065958034
74	0x3e283f09	0.16430296
75	0xbe6b5cfc	-0.2298469
76	0x3e298b3d	0.16557021
77	0xbe4e0a7a	-0.20121184
78	0x3e06c43b	0.13160793
79	0x3d9124a6	0.07087068
80	0xbd9cd06c	-0.07656941
81	0x3e1ae003	0.15124516
82	0xbe671e48	-0.22570145
83	0xbb8a2d66	-0.0042168377
84	0x3dfeef69	0.124480076
85	0x3d1322c7	0.035921838
86	0xbe5e90d1	-0.2173493
87	0xbe45943f	-0.19294833
88	0x3c692ad1	0.0142314
89	0xbdb62006	-0.08892827
90	0xbdda9319	-0.10672588
91	0xbd92811b	-0.07153531
92	0xbe1ef899	-0.1552452
93	0x3e362246	0.17786512
94	0x3cc13534	0.02358494
95	0xbe0bd9d0	-0.13657308
96	0xbdda677f	-0.106642716
97	0xbe436c62	-0.19084314
98	0xbda8756c	-0.082255214
99	0xbd4fa564	-0.05069484
100	0x3e4ea99c	0.20181888
101	0x3e06c4d2	0.13161018
102	0xbcfc48f9	-0.030796515
103	0x3dcb53ec	0.09928116
104	0xbe35c472	-0.17750719
105	0xbe5e3fd1	-0.21704032
106	0xbe66105d	-0.2246718
107	0xbdf3d3e7	-0.119056515
108	0x3e1a55ee	0.15071842
109	0xbe296d7a	-0.16545668
110	0x3e74e858	0.23916757
111	0x3cb0d962	0.021588031
112	0xbe0a8dad	-0.13530608
113	0xbdb308db	-0.087419234
114	0x3e3a7841	0.18209936
115	0x3e621ae8	0.22080576
116	0xbca8bb4d	-0.020597124
117	0xbd81c294	-0.06335941
118	0xbe4e0882	-0.20120433
119	0x3d0e1409	0.034687076
120	0x3dc7b65f	0.097515814
121	0xbe14af17	-0.14519916
122	0xbc384f6a	-0.011249403
123	0xbd18a2c5	-0.037264604
124	0xbe38ff26	-0.18066081
125	0xba81b1b0	-0.0009894874
126	0x3e19351f	0.1496167
127	0x3df9ccc8	0.12197262
128	0xbe4adf65	-0.19811781
129	0xbd8f6952	-0.0700251
130	0xbd97a4b5	-0.07404462
131	0x3d4cb13a	0.049973704
132	0x3e395810	0.181
133	0x3e24f17b	0.16107742
134	0x3da737a9	0.08164913
135	0xbe10d6e8	-0.1414448
136	0x3d379d33	0.04482765
137	0x3e3ca26c	0.18421334
138	0x3e649567	0.22322617
139	0xbd8449c8	-0.06459385
140	0xbdc79fed	-0.097473
141	0x3e0ebe3c	0.13939756
142	0x3ddb62be	0.10712193
143	0x3ce03dab	0.027373156
144	0x3e41d566	0.18929061
145	0x3d03ca0a	0.0321751
146	0xbe2e5295	-0.1702369
147	0xbe2ffa17	-0.17185245
148	0x3e178b78	0.14799297
149	0xbe45b1d7	-0.19306122
150	0xbe6e5e3e	-0.23278138
151	0xbe604fa9	-0.21905388
152	0x3d19bb6a	0.037532248
153	0x3e39d36f	0.18147062
154	0xbc36f890	-0.01116766
155	0x3dbb32d2	0.091405526
156	0x3e067883	0.13131909
157	0x3e1a57cb	0.15072553
158	0xbe1da33c	-0.153943
159	0xbe4fb7e9	-0.20285
160	0xbdbd6cdf	-0.09249281
161	0x3e11dcd3	0.14244394
162	0x3e7a6cf6	0.24455628
163	0x3e54977b	0.2076091
164	0xbd8f6eb9	-0.070035405
165	0xbe39858e	-0.18117353
166	0xbdbb141e	-0.091346964
167	0xbdabed12	-0.08394827
168	0x3e036bdf	0.12834118
169	0xbd1066b1	-0.035254184
170	0xbcee3e03	-0.029082304
171	0x3d56b2cc	0.052416608
172	0xbdf1e57c	-0.11811349
173	0xbe360e39	-0.17778863
174	0xbc66c9e6	-0.014086222
175	0xbb3ae204	-0.0028516063
176	0xbdaf3df1	-0.08556736
177	0xbd88346d	-0.066506244
178	0x3e4e7ba2	0.2016435
179	0xbd97361f	-0.0738337
180	0x3e167eaa	0.14696756
181	0x3e28c632	0.16481856
182	0xbde0035c	-0.10938141
183	0x3e2ab207	0.16669475
184	0xbe13a24f	-0.14417385
185	0xbdb766b5	-0.08955137
186	0xbe4a3356	-0.19746146
187	0xbce4c345	-0.027925143
188	0xbcaa69f2	-0.020802472
189	0x3e14cd3a	0.14531413
190	0xbc64237d	-0.013924477
191	0x3d2693f6	0.04066845
192	0xbdbd33f2	-0.092384234
193	0x3da06700	0.07832146
194	0xbd98f804	-0.0746918
195	0x3dac38f7	0.08409303
196	0x3d252fdd	0.04032885
197	0x3d72da0a	0.05928997
198	0xbe34062a	-0.17580476
199	0x3d2d4f70	0.042312086
200	0xbe2e76a1	-0.17037441
201	0xbd93ff03	-0.07226374
202	0xbbcd0460	-0.006256625
203	0xbd25b8ed	-0.040459562
204	0x3bc8edbc	0.006131856
205	0x3dc7dda4	0.097590715
206	0xbe61c4e7	-0.22047769
207	0xbdde780a	-0.108627394
208	0xbd8f370f	-0.069929235
209	0x3e2397ea	0.1597592
210	0x3e17de2a	0.14830843
211	0x3e121331	0.14265133
212	0xbc7bbccc	-0.015364837
213	0x3d6eef33	0.058333587
214	0x3e2ff61c	0.17183727
215	0xbe6d37ec	-0.23165864
216	0x3e0c8431	0.13722302
217	0xbdf953c0	-0.12174177
218	0x3e17ebfc	0.14836115
219	0x3d9aabe9	0.075523205
220	0x3d096a7e	0.033548824
221	0xbdac51d0	-0.08414042
222	0x3e713f62	0.23559335
223	0x3e2d905c	0.169496
224	0xbdf2ca7d	-0.11855028
225	0x3cc72e10	0.024313956
226	0xbd58dd83	-0.052945625
227	0xbd132c20	-0.035930753
228	0xbe52f36d	-0.20600672
229	0x3ce2a070	0.027664393
230	0x3dc9c8ea	0.098527744
231	0x3e5ff24b	0.21869771
232	0x3e5cbb0e	0.2155573
233	0x3e17768d	0.14791317
234	0xbe5aad62	-0.21355203
235	0x3dd67b4d	0.104727365
236	0xbe0a24ce	-0.13490602
237	0x3e5ab1a7	0.21356831
238	0x3dee6cf2	0.116418734
239	0xbe0817d0	-0.13290334
240	0xbd8cd829	-0.06877167
241	0xbe698815	-0.22805817
242	0x3d04565d	0.032308925
243	0xbe69c66c	-0.22829598
244	0xbca0ac5a	-0.019613434
245	0x3e227648	0.15865433
246	0x3ad028c0	0.0015881285
247	0xbe5bc498	-0.21461713
248	0xbe23a269	-0.15979923
249	0x3da9886a	0.08277972
250	0xbe515e53	-0.20446138
251	0xbc811a54	-0.015759625
252	0xbe55c45b	-0.20875685
253	0x3d7d6bf4	0.06187053
254	0xbe07193d	-0.13193221
255	0xbe239230	-0.15973735

lstm.weight_hh_l0 f4 [72, 18]
0	0xbdd065fe	-0.101757035
1	0x3b9856ca	0.004649018
2	0x3cca4128	0.024689272
3	0x3e169978	0.14706981
4	0x3db5276f	0.08845412
5	0x3d5115f9	0.051046345
6	0x3e07efb7	0.13275038
7	0x3e392430	0.1808021
8	0xbe460b5b	-0.1934027
9	0xbd1a0d63	-0.037610423
10	0x3db1cb39	0.0868134
11	0x3e428412	0.18995693
12	0xbdcea623	-0.10090282
13	0xbbcd92a6	-0.0062735854
14	0x3e54e6a8	0.20791113
15	0xbd922fde	-0.07138036
16	0x3e19d3b0	0.15022159
17	0x3e611bc4	0.21983248
18	0x3e3707a7	0.17874013
19	0x3e419fb9	0.18908586
20	0xbd7f1399	-0.06227455
21	0x3d5eaf33	0.0543663
22	0x3e1c0e09	0.15239729
23	0xbd69272e	-0.05692213
24	0x3e77df40	0.24206257
25	0x3e227566	0.15865096
26	0xbe4fb7f7	-0.20285021
27	0xbe1c1dfc	-0.15245813
28	0x3e0b9fd9	0.13635196
29	0xbc9bcd58	-0.019018814
30	0xbcd6a2a6	-0.026200604
31	0x3e0ebd08	0.13939297
32	0x3e2a3d41	0.16624929
33	0xbd34ca16	-0.044138037
34	0xbc9ee6c4	-0.019397147
35	0xbdb85aab	-0.090016685
36	0xbd003aa6	-0.03130593
37	0xbe42b05b	-0.19012587
38	0xbe11954c	-0.14217108
39	0xbe3dbd66	-0.18529281
40	0xbd42ebe3	-0.04758824
41	0xbd01b646	-0.03166797
42	0xbe09717e	-0.134222
43	0xbe1e0396	-0.15431055
44	0xbd2187f4	-0.039436296
45	0x3e02584c	0.12728995
46	0x3e1a7498	0.1508354
47	0xbe335864	-0.17514187
48	0xbe72df67	-0.23718034
49	0x3c6d0451	0.014466361
50	0x3df414c5	0.11918024
51	0x3dab2f89	0.08358676
52	0xbe347eb2	-0.17626455
53	0xbc1092d6	-0.008824071
54	0xbd73e744	-0.059546724
55	0x3d8db4fb	0.06919285
56	0x3e435ff9	0.1907958
57	0xbb844336	-0.0040363325
58	0x3e3b0cab	0.18266551
59	0x3e0b1fb0	0.13586307
60	0xbdd8cebc	-0.105863065
61	0xbd1df4ac	-0.038563415
62	0x3e067988	0.13132298
63	0x3d093971	0.033502046
64	0xbe25a928	-0.16177809
65	0x3e5a97be	0.21346948
66	0x3e09c099	0.13452376
67	0x3d876e74	0.06612864
68	0x3dc1156e	0.094279155
69	0x3e546cd0	0.20744634
70	0xbe005341	-0.12531759
71	0xbe368be0	-0.17826796
72	0xbe2a4d2b	-0.16631
73	0xbe10a552	-0.14125565
74	0x3d345c83	0.04403354
75	0x3c21beb8	0.009872131
76	0xbd98740f	-0.074440114
77	0x3daaad6e	0.0833386
78	0xbe2c1774	-0.16805822
79	0xbcc30c5b	-0.023809602
80	0xbe1daf05	-0.15398796
81	0xbe560c7b	-0.20903198
82	0xbd685ebd	-0.056730974
83	0x3e2b6059	0.16735972
84	0xbda93f5f	-0.0826404
85	0x3c8d2b7e	0.017232653
86	0xbde10d1e	-0.1098883
87	0x3e1b4f17	0.15166889
88	0x3dcc26c0	0.099683285
89	0xbd83791e	-0.06419586
90	0x3d3d3069	0.046188746
91	0xbddbc4b2	-0.10730876
92	0x3c8aab44	0.016927369
93	0xbdb6a31d	-0.0891783
94	0xbe072a12	-0.13199642
95	0x3df3ca1c	0.11903784
96	0xbe06ea17	-0.13175236
97	0xbe20e496	-0.15712199
98	0xbe1a2ced	-0.150562
99	0xbdc1b092	-0.09457506
100	0xbda5c8f6	-0.08094971
101	0xbd6227bd	-0.05521368
102	0xbda6ae28	-0.081386864
103	0xbd9a718d	-0.07541189
104	0x3d20afb8	0.03923008
105	0x3e0b059a	0.13576356
106	0x3e451952	0.1924794
107	0xbe6d84bc	-0.23195165
108	0x3e2c79c9	0.16843332
109	0xbe22f782	-0.15914729
110	0xbd9fbfda	-0.07800265
111	0xbdede81d	-0.11616538
112	0x3e3cfc1c	0.18455547
113	0xbe6d554e	-0.23177072
114	0xbda4b2d4	-0.08041921
115	0xbe10a392	-0.14124897
116	0x3e3caae2	0.18424562
117	0xbdaa5e11	-0.08318723
118	0xbd5ac41b	-0.053409677
119	0xbe733a40	-0.2375269
120	0xbccd78a6	-0.025081944
121	0x3e354c62	0.17704919
122	0x3e68d889	0.22738852
123	0x3dba0e90	0.09084809
124	0x3d6b9e93	0.057524275
125	0x3e4448b5	0.1916836
126	0xbdef7bfb	-0.11693569
127	0x3d2bd00c	0.041946456
128	0x3e617967	0.22018968
129	0x3dd582c7	0.104253344
130	0x3ceb23dc	0.028703623
131	0x3e4d3fd2	0.20043877
132	0x3e22ae27	0.15886746
133	0xbda670e7	-0.08127003
134	0x3dafc8cf	0.08583223
135	0x3e0daca8	0.13835394
136	0xbd1f5da6	-0.03890767
137	0x3e65a287	0.2242528
138	0xbd95b773	-0.07310381
139	0xbe0094ab	-0.12556712
140	0x3de99f16	0.11407296
141	0xbe0f0274	-0.1396578
142	0x3e3fc1c6	0.18726262
143	0x3d145122	0.036210187
144	0xbe34fb36	-0.17673954
145	0x3d10179a	0.03517876
146	0xbe4c7c64	-0.19969326
147	0xbd8ae4cd	-0.067819215
148	0x3d370e9e	0.044691674
149	0x3e4a4234	0.19751817
150	0xbb8e1a9c	-0.004336668
151	0x3ce4b3ae	0.02791771
152	0x3de07269	0.10959322
153	0xbe19d776	-0.15023598
154	0xbe66e662	-0.22548822
155	0xbda6cbf8	-0.08144373
156	0xbe735f4e	-0.23766825
157	0xbe617b01	-0.22019579
158	0xbe0a20d6	-0.13489088
159	0x3dd44cb9	0.10366196
160	0x3d2c7208	0.042100936
161	0xbe34c3e3	-0.1765285
162	0xbe5adaa3	-0.21372466
163	0xbdd0038a	-0.10156925
164	0x3bcf6d70	0.0063301846
165	0x3e71d7ea	0.23617521
166	0xbdfeb645	-0.12437109
167	0xbe4b533e	-0.19855973
168	0x3e4b7911	0.19870402
169	0x3e2fc1a2	0.17163709
170	0x3e2ff597	0.17183529
171	0x3e60eabd	0.21964546
172	0x3e1d4722	0.15359166
173	0x3d460bd0	0.04835111
174	0x3d5a636b	0.05331747
175	0x3e659de7	0.22423516
176	0xbc86ea04	-0.01646901
177	0x3d95d1fd	0.07315443
178	0x3e12d5af	0.14339326
179	0x3e26bea3	0.1628366
180	0x3e2c3cb7	0.16820036
181	0xbe435b65	-0.19077833
182	0x3e412c16	0.18864474
183	0x3ddaa00d	0.106750585
184	0x3e14d82f	0.14535592
185	0x3db65b78	0.08904165
186	0x3e2a16a5	0.166102
187	0x3d89b382	0.067236915
188	0x3e030196	0.12793574
189	0x3de3bae8	0.11119634
190	0xbbce2a46	-0.0062916605
191	0x3d99a240	0.0750165
192	0x3d2c5aac	0.04207866
193	0x3de1116b	0.1098965
194	0x3dd359fc	0.103198975
195	0x3da4e31b	0.080511294
196	0xbe25dc38	-0.16197288
197	0x3e1ca22d	0.1529624
198	0x3e362ce0	0.17790556
199	0x3e10756e	0.14107296
200	0xbdc1101f	-0.09426903
201	0x3e3a1ac5	0.18174274
202	0xbe524a99	-0.20536269
203	0x3ca9bb82	0.020719294
204	0x3d508a8c	0.05091338
205	0x3e6702e4	0.22559696
206	0xbc6c8682	-0.014436366
207	0x3ce74f26	0.028235983
208	0xbe1fbcc4	-0.15599352
209	0xbdccb83d	-0.09996078
210	0x3e116e86	0.14202318
211	0x3d63645c	0.055515632
212	0x3e2d151b	0.16902582
213	0xbe1028e4	-0.14078099
214	0xbd9a3c52	-0.075310364
215	0x3e733f44	0.23754603
216	0xbd26cddd	-0.04072367
217	0x3be2108c	0.006898945
218	0xbe4ee28b	-0.20203607
219	0x3e2a2ba3	0.16618209
220	0xbe202a1b	-0.15641062
221	0x3e16c2ba	0.1472272
222	0x3e176fd0	0.14788747
223	0xbd0ef549	-0.03490189
224	0x3e51c9ee	0.20487186
225	0x3dd3943e	0.10331009
226	0xbd829264	-0.06375578
227	0xbdd52f56	-0.10409419
228	0xbdaf3fa7	-0.085570626
229	0xbdf1ceeb	-0.118070446
230	0xbe59f84a	-0.21286121
231	0xbdcbdbde	-0.09954046
232	0x3dcae0b6	0.099061415
233	0x3d6a5c36	0.057216845
234	0x3d2aea88	0.041727573
235	0xbd82c9da	-0.063861564
236	0x3e1d96ef	0.15389608
237	0xbdc1c333	-0.094610594
238	0xbe13fe6f	-0.14452527
239	0xbe154e81	-0.14580728
240	0x3bcc057c	0.0062262397
241	0x3dda5395	0.10660473
242	0x3d84f700	0.06492424
243	0xbb8847e4	-0.0041589607
244	0xbe31fd93	-0.17381887
245	0xbe7314cc	-0.23738402
246	0x3e25fc07	0.16209422
247	0x3e4b9389	0.19880499
248	0xbdf58ba4	-0.11989525
249	0xbe7061b9	-0.23474778
250	0xbe265cbe	-0.16246316
251	0xbd3dedbf	-0.04636931
252	0xbe06d263	-0.13166194
253	0xbe654ebd	-0.22393318
254	0xbd6b15ad	-0.05739372
255	0xbbc4e256	-0.0060084267

lstm.bias_ih_l0 f4 [72]
0	0xbda17c78	-0.07885069
1	0xbe46d6bc	-0.19417852
2	0x3d89e0e2	0.06732346
3	0xbd69637a	-0.056979634
4	0x3c2e859f	0.010651975
5	0xbd76c706	-0.060248397
6	0xbe1cd448	-0.15315354
7	0x3e735edd	0.23766656
8	0xbe18f53a	-0.14937297
9	0x3e4704b8	0.19435394
10	0x3e1f9fa6	0.15588245
11	0x3e311bd1	0.17295767
12	0x3e3692d4	0.17829448
13	0xbd824777	-0.06361287
14	0xbd32fd08	-0.04369834
15	0xbe635fc5	-0.22204502
16	0xbda1c58d	-0.07899008
17	0xbe384c46	-0.17997846
18	0x3dac6ef2	0.08419599
19	0x3cba7b7e	0.022763964
20	0xbd954a8b	-0.072896086
21	0xbdd7f3f7	-0.105445795
22	0x3c3bf196	0.011471173
23	0x3db916b2	0.09037532
24	0x3d775b96	0.060390078
25	0xbe6238c1	-0.22091962
26	0x3db5bb50	0.08873618
27	0x3d3cb59b	0.04607163
28	0xbe237811	-0.1596377
29	0x3e151f84	0.14562804
30	0xbb545aa8	-0.0032402668
31	0xbdc68c3a	-0.09694715
32	0xbe087ade	-0.1332812
33	0xbd42e346	-0.047580026
34	0x3e55442f	0.20826791
35	0x3ca6f490	0.020380288
36	0xbdf6d5a7	-0.1205247
37	0xbda1a476	-0.078926966
38	0x3c09e3c8	0.008416124
39	0x3df2d6cf	0.11857378
40	0xbe50f18b	-0.20404641
41	0x3dc23204	0.09482196
42	0x3e21d608	0.15804303
43	0xbd9fd15d	-0.07803605
44	0xbdd3a8d0	-0.10334933
45	0xbe350d44	-0.17680842
46	0x3e2b9f4f	0.1675999
47	0xbe3d9413	-0.18513517
48	0xbd4ef24d	-0.050524045
49	0x3e538454	0.20655948
50	0x3e4a190f	0.19736122
51	0x3e49c42f	0.19703744
52	0x3e28182c	0.16415471
53	0x3dae4e57	0.08511036
54	0xbe5292a9	-0.20563759
55	0xbccf66e0	-0.02531761
56	0xbe1e9600	-0.15486908
57	0xbe55ea44	-0.20890146
58	0xbe75586a	-0.23959509
59	0x3d5b30ce	0.05351334
60	0xbdaf0cdb	-0.08547374
61	0x3e3b21e7	0.18274651
62	0xbd84ee2a	-0.06490739
63	0xbe284ba1	-0.164351
64	0xbe103f41	-0.1408663
65	0xbe2af6cd	-0.1669571
66	0xbd620c13	-0.055187296
67	0x3e497a21	0.19675495
68	0x3e5070a0	0.20355463
69	0xbd79a600	-0.060949326
70	0xbdeb3230	-0.11484182
71	0x3d385213	0.045000147

lstm.bias_hh_l0 f4 [72]
0	0x3e58b820	0.21163988
1	0xbde224a8	-0.11042148
2	0xbe1682f3	-0.1469839
3	0x3ca49fe5	0.020095775
4	0x3c8512f0	0.016244382
5	0x3e30c864	0.17263943
6	0x3db94cb7	0.09047835
7	0x3e6a3a73	0.22873859
8	0x3df5837e	0.11987971
9	0xbd39b46e	-0.045338087
10	0xbe153f7d	-0.14575
11	0xbdc5420e	-0.096317396
12	0xbe60edba	-0.21965685
13	0xbc85470c	-0.01626923
14	0xbd124fd8	-0.035720676
15	0xbe4e9564	-0.20174176
16	0x3a93a030	0.001126295
17	0x3e2ba34b	0.1676151
18	0xbe2a0e2c	-0.16606969
19	0xbd7b91b5	-0.061418254
20	0x3dd93507	0.10605817
21	0xbe25dcb0	-0.16197467
22	0xbcebcc9d	-0.02878409
23	0x3c648591	0.01394786
24	0x3ddbb767	0.107283406
25	0x3c9ccbf9	0.01914023
26	0x3e452148	0.19250977
27	0x3dcda71e	0.10041641
28	0x3e711ca7	0.23546086
29	0xbe130087	-0.1435567
30	0x3e604285	0.21900375
31	0xbe4936ee	-0.1964986
32	0xbca98605	-0.020693788
33	0xbe2f617a	-0.17127028
34	0xbe64ee9f	-0.22356652
35	0x3d994546	0.07483916
36	0xbd8f2be1	-0.06990791
37	0x3d019677	0.031637635
38	0x3e3e66e0	0.18593931
39	0xbe35b732	-0.17745665
40	0x3e4b45c3	0.1985083
41	0x3e0e0f50	0.13873029
42	0x3e12512a	0.14288774
43	0x3e604411	0.21900965
44	0x3d9a2968	0.07527429
45	0x3e194a58	0.14969766
46	0x3d9dabcf	0.076987855
47	0x3e2014fd	0.15633006
48	0xbd8d2cbe	-0.068932995
49	0x3d8ba550	0.0681864
50	0xbdad45af	-0.08460557
51	0x3e5d6c4d	0.21623345
52	0x3e4ade14	0.19811279
53	0xbe2e6e46	-0.17034253
54	0x3ddf4861	0.10902477
55	0xbde06c8f	-0.10958206
56	0xbe228392	-0.15870503
57	0x3e0a6b70	0.13517547
58	0xbe728e88	-0.23687184
59	0xbc2162da	-0.009850228
60	0xbc3deba6	-0.0115918275
61	0x3e3e2bcd	0.18571396
62	0xbd66d277	-0.05635306
63	0x3d90e4ef	0.070749156
64	0x3e5b0711	0.21389414
65	0xbe5dd2cd	-0.21662445
66	0x3daca012	0.084289685
67	0xbcdd80e9	-0.027039008
68	0xbda37c5f	-0.07982706
69	0x3e2d7510	0.16939187
70	0xbe6687c0	-0.22512722
71	0x3dc4d61a	0.09611149

hidden2label.weight f4 [10, 18]
0	0xbe439189	-0.19098486
1	0x3cda80fb	0.02667283
2	0xbc678939	-0.0141318375
3	0x3e601bca	0.218856
4	0x3e29f5ce	0.16597673
5	0x3e12e4af	0.14345048
6	0x3e4d36b3	0.20040397
7	0x3e09da97	0.13462292
8	0x3e533be5	0.20628317
9	0x3e582586	0.21108064
10	0xbe57639c	-0.21034092
11	0x3e5e983b	0.21737759
12	0xbe5fd12e	-0.2185714
13	0x3dc71fc7	0.09722858
14	0x3d839b12	0.06426062
15	0xbe10cc12	-0.14140347
16	0x3e7b29a7	0.24527608
17	0xbda3b93f	-0.07994317
18	0x3dc31801	0.09526063
19	0xbb983dbc	-0.004646031
20	0xbe431c9d	-0.19053884
21	0x3e524f53	0.20538072
22	0xbdc399d9	-0.095508285
23	0x3e5407a3	0.20706038
24	0xbd9bc07b	-0.07605072
25	0xbe679604	-0.2261582
26	0xbe616fe0	-0.22015333
27	0xbe3a44ea	-0.18190351
28	0x3bb5c4ec	0.0055471566
29	0xbe6f01bd	-0.23340507
30	0xbd93de1d	-0.07220099
31	0xbe2d6c4c	-0.16935843
32	0x3e20b1c6	0.15692815
33	0xbde6e9e7	-0.11275082
34	0x3e2560d1	0.16150214
35	0xbd4e4212	-0.05035598
36	0x3e2a49c9	0.1662971
37	0xbd8346a9	-0.06409962
38	0xbdd322e3	-0.103093885
39	0x3dd675d7	0.10471695
40	0xbe391701	-0.18075182
41	0x3d79deec	0.06100361
42	0x3e34adec	0.17644471
43	0x3dcfc275	0.101445116
44	0x3d99c2ba	0.07507844
45	0x3cb8c3a8	0.022554234
46	0x3d134f0e	0.035964064
47	0xbe180829	-0.14846863
48	0xbdffc7eb	-0.12489303
49	0x3bd0b900	0.00636971
50	0xbe05c0b8	-0.13061798
51	0xbd92081e	-0.071304545
52	0xbd92dbb7	-0.071708135
53	0xbe502884	-0.20327955
54	0xbcab29b3	-0.020893907
55	0x3e52d4aa	0.20588937
56	0x3bf6a32e	0.0075267768
57	0xbe0babf8	-0.1363982
58	0xbd1081fd	-0.035280216
59	0x3cf487a6	0.029849838
60	0x3c9df6e6	0.01928277
61	0x3da4ca79	0.08046431
62	0x3e3128b1	0.17300679
63	0x3df613fc	0.120155305
64	0xbe61be72	-0.22045305
65	0x3e0521ff	0.1300125
66	0xbe2c4ae0	-0.16825438
67	0x3e7b8da6	0.24565753
68	0xbda79cf2	-0.08184232
69	0x3d643e9d	0.055723775
70	0xbe492d19	-0.1964611
71	0x3e495056	0.19659552
72	0x3e18d365	0.1492439
73	0xbdd55532	-0.1041664
74	0x3dd896c4	0.10575631
75	0x3e58cfdf	0.21173047
76	0xbdd642e4	-0.10461977
77	0xbdbe04cc	-0.09278259
78	0xbd7ef180	-0.06224203
79	0x3e1b9e71	0.1519716
80	0x3c1bcfd3	0.009509998
81	0xbe34f744	-0.1767245
82	0xbde7f85e	-0.11326669
83	0xbd062e58	-0.03275904
84	0x3e2f3e45	0.17113598
85	0xbdaee4cc	-0.08539733
86	0xbe670a50	-0.22562528
87	0x3daf35b6	0.085551664
88	0x3e39c1db	0.18140356
89	0x3d1773fd	0.03697585
90	0xbe26d915	-0.16293748
91	0xbbc989c6	-0.006150457
92	0xbe3fc6a6	-0.18728122
93	0xbe3c6034	-0.18396074
94	0x3dd3c899	0.10340995
95	0x3d352a8c	0.04423003
96	0x3d991c0d	0.074760534
97	0xbd84d9b1	-0.06486834
98	0x3c941da8	0.018080547
99	0x3de79ec8	0.11309582
100	0x3de3a173	0.11114778
101	0xbe33595a	-0.17514554
102	0x3dcd233f	0.10016488
103	0x3e0b52e7	0.13605843
104	0xbe0917c4	-0.13387972
105	0xbe0030b8	-0.12518585
106	0xbc910217	-0.017701192
107	0xbe4ef392	-0.20210102
108	0xbbe084de	-0.0068517765
109	0x3e1d4910	0.15359902
110	0x39917e20	0.00027750526
111	0x3db6ca6f	0.0892533
112	0xbe4e3af9	-0.20139684
113	0xbdb3b2ac	-0.08774313
114	0x3cc9d1dc	0.024636202
115	0x3d8870a1	0.06662107
116	0x3dd6ae76	0.104824945
117	0x3e2986a3	0.16555266
118	0xbd129e6e	-0.03579562
119	0xbe56d8de	-0.20981166
120	0x3e541253	0.20710115
121	0x3dc215e8	0.094768345
122	0xbe4277c1	-0.18990995
123	0xbd89fef4	-0.067380816
124	0x3da671fe	0.08127211
125	0xbdb342a3	-0.08752944
126	0xbd644edc	-0.05573927
127	0x3d3ae436	0.045627795
128	0xbdf337e7	-0.11875897
129	0xbe3a35e8	-0.18184626
130	0xbe2b68d2	-0.16739205
131	0xbdb1ab56	-0.08675258
132	0x3e320108	0.17383206
133	0x3c76c80a	0.0150623415
134	0x3e1da5c1	0.15395261
135	0xbd457f88	-0.048217326
136	0xbe55d15d	-0.20880647
137	0xbe336a28	-0.17520964
138	0xbdd88695	-0.105725445
139	0xbe0b9cc0	-0.13634014
140	0x3e236425	0.15956171
141	0xbe07ec40	-0.13273716
142	0xbe59f303	-0.21284108
143	0xbd287cc2	-0.041134603
144	0xbe0d9517	-0.13826405
145	0x3e00a4d5	0.12562878
146	0xbe1756b4	-0.14779168
147	0x3e250132	0.16113737
148	0xbe16f194	-0.14740592
149	0x3d82669f	0.0636723
150	0x3db48956	0.08815257
151	0xbe62029a	-0.22071305
152	0x3dbd6007	0.092468314
153	0x3e4a035f	0.19727848
154	0x3e216ca8	0.15764105
155	0x3dbd0bd7	0.09230774
156	0xbe1bc5fa	-0.15212241
157	0xbe6c6df3	-0.23088817
158	0xbe1ff97a	-0.15622512
159	0xbe071ff0	-0.13195777
160	0x3e278c76	0.16362175
161	0x3e28072a	0.16408983
162	0xbe1aafb7	-0.15106092
163	0xbd4b7436	-0.049671374
164	0xbd1fd9a6	-0.039025925
165	0xbe20a682	-0.15688518
166	0xbe112fc5	-0.14178379
167	0x3da90b7a	0.08254142
168	0xbd5eb21e	-0.054369085
169	0xbc2b5d87	-0.01045931
170	0xbb0d05c8	-0.0021518338
171	0x3dfc5d48	0.123224795
172	0xbe636880	-0.22207832
173	0xbdb9a2e3	-0.09064271
174	0xbe0ba468	-0.13636935
175	0xbdeafea5	-0.11474351
176	0x3d59a753	0.05313809
177	0x3dd10556	0.10206096
178	0x3c959642	0.018260125
179	0x3cf35d2c	0.029707514

hidden2label.bias f4 [10]
0	0xbc1798aa	-0.009252707
1	0xbdd72385	-0.10504822
2	0xbd9c03f3	-0.07617941
3	0x3addd038	0.0016923016
4	0xbe3f1049	-0.18658556
5	0xbdf87041	-0.12130786
6	0xbe1d7bd7	-0.15379272
7	0xbe2f9225	-0.17145593
8	0x3e30c4f0	0.17262626
9	0xbd01306e	-0.031540327
