Models/LSTM_iteration_100.pt (torch_old, 65558 bytes, 7 tensors)

word_embedding.weight f4 [12, 256]
00000000: 9eb8 af3c 5d86 3a3f e649 853d fab3 6cbe
00000010: d442 cabf a7f8 9abe 0c52 3d3f 1c4a ed3e
00000020: 3231 553f f9ec 0340 d734 97bf 9ef6 ae3e
00000030: e641 20bd 1f4e 3dbf 1a31 44bf 4c17 74bf
00000040: 29c0 63bf c44c 22bf d333 75bd dfd2 72bf
00000050: ca1f 7cbf ce2c 21bf d746 bcbe 1e36 aa3f
00000060: e4db 473f 7540 c4bf a16c 49bf 6ca4 d33f
00000070: d9d7 fe3f 248d 75be da29 bebe 7583 f1be
00000080: 3178 6bbf 5da1 bd3f 5d49 6e3f 797b 0d3f
00000090: 7108 f1be 34bd 17c0 1110 15be b0c9 893f
000000a0: 0a81 06bf 69f8 c53d 1f7b 92be 9975 dcbf
000000b0: 8a69 343e 3607 3b3e 11b2 f0bc 8c2d b4be
000000c0: ae07 043f 8154 6fbd 8e7a 2e3f 6c9a b13f
000000d0: 4e02 323f f360 293e f1ea 90bc 00ff 343c
000000e0: 471d 05c0 d390 a63e d9fa 93bf cfc1 b9bf
000000f0: 827f 91bf 3a73 40bc 1b58 ee3f cda1 39be
00000100: e5da e2bf 9a39 68bf 65c5 35bd 73c0 783f
00000110: 7423 193f ad20 a63f 189a cd3f 7a83 4a3f
00000120: c034 07bd 507d eabd 8656 2cbf a686 14c0
00000130: e306 68bf bf03 9dbf 86de 9c3e 3c98 8d3f
00000140: 7517 8abf d464 ae3f f315 e3bf 223b 4d3e
00000150: e814 2c3f 9e75 0dbe 9fc0 0b3f aff9 423f
00000160: c3af 1e3f 76d5 65bd 4dfa 903e b28f a7bf
00000170: be44 0c3f ad74 16bf a1f0 70bf 5bdc 6c3f
00000180: 3980 06bf 78e2 1640 332f 1d3e 85a2 783f
00000190: 2529 9ebe e479 153f 2963 0a3f 40d1 b33e
000001a0: 16e1 0a3f 5555 5c3e 612c 683e e5ce d13f
000001b0: 538e da3e a3d1 273f e0ac 54bf d599 733f
000001c0: e15c 0540 0360 0c3f b314 86be a288 b83e
000001d0: 5c0b 9d3f 792e de3e 86c0 e5be 1f2a be3e
000001e0: 1a8c 9a3f 25ab 8f3f 2849 933f ef6b 3ebf
000001f0: 343d 15be 8281 9b3f 20fa b23e 5253 c63e
00000200: 8a63 97bf b29f 9bbf 5a31 54be ebdc 05bf
00000210: a549 803e c406 cdbf 0a18 443e fa44 c5bd
00000220: 3741 fcbf 261d 2b3f 9cb7 0cbf f10d 34bf
00000230: 1b43 44bf 9d92 d4bd 0016 46be cd17 8c3d
00000240: 36af e33e ca66 c4bf 875d 5fbf 183b f4be
00000250: e03e 813f d308 03c0 8fdd 53bf 5f1a 8bbf
00000260: 96d6 633f 396a e9bf c5f1 d13b 621f 223f
00000270: 178b 993f e94f 1cc0 0597 5c3e 75d0 23be
00000280: 5d8c 27bf 3d4d 0f3f 018d a83e d613 213e
00000290: cb79 9abf e91d b13e 5499 6a3d 3041 af3f
000002a0: 51c4 ebbe eb3b c5be fb90 7cbe e0d7 b43e
000002b0: 4719 b63f b61e 233f af9d 19bf 5505 e0bf
000002c0: 2146 92bf 8209 d83f d1d0 26bf bb22 c5bf
000002d0: 71b8 d0bf a0e7 86be 867d fdbf 5dd1 63bf
000002e0: 7fc3 f3bf 381e a2bf fdd8 e3be 2976 b53f
000002f0: f2ee e13d 8553 2abf 9b75 5f3f 47f0 44bf
00000300: 20dd 53bf 085f ea3c 35a2 373e ced2 81bc
00000310: 073b 223c ff42 9b3f 7f04 cc3f 023c 3fc0
00000320: 1fd3 8abf fdc5 9cbf 902b f13f 1439 06be
00000330: c6e3 72bf 02bf 643f 88e2 243f a526 743f
00000340: 80a0 e8be 3a8c 5f3f fbbc 803f 5e68 f5be
00000350: d6f2 06bf 2a4a 0740 146f 2f3f bb43 60bf
00000360: 3e88 c13e 5579 a63e 19b9 8f3f 33e3 823f
00000370: 7959 5cbe e314 ca3d 0cef fc3e 8f74 c33f
00000380: 7ec9 973f 72d6 7d3e 8eb0 4c3f 3493 353f
00000390: 6301 033f 617f bf3f 1e99 fabe c66e 123d
000003a0: d5ae aabe f2bf a1bd cb58 48bf 491b 4640
000003b0: dde0 6ebf 1f96 9cbf 2f00 0d3f 5806 9e3e
000003c0: d0ce f93f 5c61 303f c924 1b3f e1dc 7c3d
000003d0: 0f09 0cbc f13f c93f e109 c43e 8321 663e
000003e0: 6a00 b1bf f951 b13f 586f 973e 97ed 6ebf
000003f0: 9b80 d1be 5c1c bf3e b541 ecbe ebba 09be
0.021450337 0.7286127 0.06508236 -0.2311553 -1.5801644 -0.30267832 0.7395332 0.46345603
0.8327819 2.0613387 -1.1813 0.3417253 -0.039125346 -0.7394733 -0.76637423 -0.9534805
-0.8896509 -0.63398385 -0.059863877 -0.94853014 -0.98486006 -0.6295899 -0.36772797 1.3297765
0.780699 -1.5332171 -0.7868138 1.6534553 1.9909621 -0.23979622 -0.37141305 -0.47170606
-0.9198027 1.4814869 0.93080693 0.5526653 -0.47076753 -2.370923 -0.1455691 1.0764675
-0.5254065 0.09666521 -0.2860956 -1.7223388 0.17618385 0.1826447 -0.029381784 -0.35191
0.5157422 -0.0584302 0.68155754 1.3875251 0.69534767 0.1654089 -0.017690154 0.011047125
-2.079912 0.32532367 -1.1560928 -1.4512271 -1.1367037 -0.011746222 1.8620638 -0.18128128
-1.7723051 -0.90712893 -0.044377703 0.97168654 0.5981972 1.2978722 1.6062651 0.7910687
-0.03300929 -0.11449683 -0.67319524 -2.3207183 -0.9063551 -1.2266768 0.30638522 1.1062083
-1.0788409 1.362452 -1.7741073 0.20042089 0.672194 -0.13814399 0.5459079 0.76162237
0.6198694 -0.056111775 0.28315964 -1.3090727 0.5479239 -0.58771783 -0.9411717 0.92523736
-0.525394 2.3575726 0.15350036 0.97122985 -0.30890766 0.58389115 0.54057556 0.35120583
0.54249704 0.21516927 0.22673179 1.6391264 0.4268671 0.65554255 -0.83076286 0.95156604
2.0837939 0.54834 -0.26187667 0.36041743 1.2269092 0.4339483 -0.44873446 0.3714151
1.2074006 1.1224104 1.15067 -0.74383444 -0.14574128 1.2148898 0.34956455 0.38735443
-1.1827252 -1.215811 -0.20721951 -0.5229022 0.25056186 -1.601769 0.19149795 -0.09632297
-1.9707402 0.6684135 -0.54967666 -0.7033377 -0.76664895 -0.10379527 -0.1934433 0.06840477
0.44469613 -1.5343869 -0.87252086 -0.47701335 1.0097313 -2.0474136 -0.82759947 -1.0867423
0.8899931 -1.8235542 0.006406995 0.63329136 1.1995572 -2.4423773 0.21541984 -0.15997489
-0.6544855 0.5597723 0.32920077 0.15730223 -1.2068418 0.34593132 0.05727513 1.3691769
-0.46048215 -0.38522276 -0.2466468 0.3532095 1.4226464 0.63718736 -0.6000623 -1.7501627
-1.1427652 1.6877902 -0.6516238 -1.5401224 -1.6306287 -0.2634859 -1.9803932 -0.8899134
-1.9044036 -1.2665472 -0.44501486 1.4176685 0.11031903 -0.6653369 0.87288827 -0.76929134
-0.82759285 0.028609768 0.17932971 -0.01584759 0.0099017685 1.212982 1.5938872 -2.9880376
-1.0845679 -1.2247921 1.8841419 -0.13107711 -0.94878805 0.89353955 0.6440816 0.95371467
-0.45434952 0.87323344 1.0057672 -0.47931188 -0.5271429 2.1139016 0.68528867 -0.8760335
0.37799257 0.32514444 1.1228362 1.0225586 -0.21518506 0.09867265 0.49401128 1.5269946
1.1858366 0.24788836 0.799569 0.7092774 0.5117399 1.4960748 -0.48944944 0.035750173
-0.3333651 -0.07897939 -0.7826049 3.0954154 -0.93311864 -1.2233313 0.55078405 0.30864215
1.9516239 0.6889856 0.60603005 0.061734084 -0.008547082 1.5722638 0.38288787 0.22473721
-1.3828251 1.3853141 0.29577136 -0.93331283 -0.4091843 0.37326324 -0.4614388 -0.1345021

lstm.weight_ih_l0 f4 [48, 256]
00000000: f588 7f3e 2136 4ebe f4c6 9a3e 1913 a93d
00000010: 937a 0b3e 9e45 b43e 6a5e 52be e67d 7b3c
00000020: 8da4 a23d 1862 3f3e 9766 083e 17f1 30be
00000030: fdca 4cbe 8390 b3be c009 943e 05db 743e
00000040: dbb4 053e 4106 153e 6ff8 3e3d 2fa6 563e
00000050: a922 c9bd 0402 983c 6afc 963d 3228 813c
00000060: d4d8 843e 98ef 86be 676e 8b3e 1281 a33c
00000070: fab1 073e c8cf 8e3e a687 afbd d71d c5bd
00000080: ac60 ca3d 91c7 54be e581 1ebe e24a 3abe
00000090: 3eae f9bd 9785 973e b994 923e fd50 973e
000000a0: 6b46 d3bd 8d00 42be 957b 843e 3720 0c3e
000000b0: ce02 67be cd79 203e f5ce f339 2b22 c0bd
000000c0: 4857 d1bd a377 a63e 0c5e eb3d fa7d 2c3e
000000d0: e017 053d e41f 8bbd 73ce 9ebe bdde 1e3e
000000e0: b827 453e b18f 6cbe 57c8 b43e 0a88 323d
000000f0: 4383 0e3e 2d63 2b3e b47a 243e 3111 6a3e
00000100: f050 973e c564 00be c312 8c3d 8639 cc3d
00000110: 862f 7fbe 5d24 7ebe cfa5 383e c2c3 183e
00000120: 7565 673d 4e70 373e d2a2 8e3b b8a7 69bd
00000130: 0648 2f3e 0f05 3d3e 497d d5bb c687 4bbc
00000140: 0b3c 243e b65c 53be 42ee 633d ad9e a53e
00000150: ebba 20be 6942 2f3e 67b4 10be 3b66 d13c
00000160: 22b0 3f3e 5fc1 9a3e fe0a 8cbd ce02 1c3e
00000170: 2c9d 193d 1309 643e 2a2a 143d 3ee8 f73c
00000180: 907e bb3d 32ca 87bc 5bed 753e c6b5 75be
00000190: d3b0 95bd 6c05 cdbd 0979 edbd c729 d03d
000001a0: ae47 0bbe cbbc 1f3e 98aa 013e 6487 72be
000001b0: cac9 743d 5c5d 43be 3346 20be 2b9a f03c
000001c0: b8db ed3d f508 573e d1eb 27be 17e3 59bd
000001d0: 3417 a6be 695b e0bd 4ed1 70be 2202 14be
000001e0: 4606 6f3e 7c2f 9dbe 9792 71be 002d 063d
000001f0: e2b3 313e d1e7 aebe 9972 86be 20c5 da3d
00000200: 9a3a cbbd 44ab 14be e24e 99be ed8f 633e
00000210: b236 6cbe 7c39 28be 0caa de3d e48f 083e
00000220: 9433 9f3d b32f a5be 7663 563e 0517 3b3e
00000230: e2b0 a0be 22fa 07be 61ae 233e 1f0f d23d
00000240: ae4c 83be 3146 efbb efa3 603c ec49 123e
00000250: 0f4a b0bd 42d7 a1bd 71bd 163e 4238 163e
00000260: adbc 333e 3cd7 b13e 2ba7 d83d aca2 89be
00000270: 0d11 613e 8edf 643e 1f1d f2bc d81e 3e3e
00000280: 34bf 4dbe 14a3 823e 252a 88bd affc 343e
00000290: 5392 833d 0a21 023e cc1f a73e ae85 19bc
000002a0: ca84 04bd d07e 7c3e f751 2f3e 6905 79be
000002b0: 7f93 413e 723d 50be 2ced a0be 27df 01bd
000002c0: 61f0 f43d 24dc 82be 1361 303e 671d 65bd
000002d0: 4832 4a3e 6259 10bd 4228 3b3e ba73 9e3d
000002e0: f33a 893b 6c89 6b3d f168 733e 11b8 083e
000002f0: 67a4 ba3d 5657 52bd be03 4bbe e580 cdbd
00000300: 674b 743d 852f 7d3d d30f 12be 4135 42bc
00000310: 82f2 9fbe 6cd9 843e ce1c c6bd 32b6 11be
00000320: 1c8e 28bd 6ea4 26be 44bf 83be a51a 873e
00000330: 730e 40bd 80a3 afbe 32db b23d 065f 82be
00000340: a44f 283e 7068 0f3e 5ab5 60bd 6846 d6bd
00000350: d3c7 ab3e 379c 0a3e 2d5a 8abe c927 47be
00000360: 8e17 77bd 6853 ae3d 8aac 6f3a e0f8 6cbd
00000370: b7ec 4cbe efd7 d13d 846c 693e 79b7 493e
00000380: 656f 10be c90d 03be 6034 b8bb e9f8 e5bd
00000390: aa29 d4bd b834 36be fb5c 693d 25b5 533e
000003a0: 0133 993e 847b 0f3e 8773 0a3e 21bc 0bbe
000003b0: 9738 9e3c 676a 43bd 7857 d03d 275d a03e
000003c0: 622d 423e d69b 15be ca71 413e 67ef 963d
000003d0: 6687 553e 6d5a 15be 1dd7 ae3c 9f29 603e
000003e0: 4a2e 123e f667 6abd 2ffb 78be f382 da3b
000003f0: c66e bc3d a875 b73d 7aae 883e 4211 803c
0.24954589 -0.20137836 0.30229914 0.08255596 0.13620977 0.35209364 -0.20543829 0.015349841
0.07941542 0.18689764 0.13320385 -0.17279468 -0.19999309 -0.3507119 0.2891369 0.23911674
0.13057272 0.14553167 0.046623643 0.20961832 -0.09821064 0.018555649 0.07372363 0.015766237
0.25946677 -0.2635467 0.27232668 0.019959006 0.13251486 0.278929 -0.08570795 -0.09624832
0.0988172 -0.20779254 -0.15479238 -0.18192628 -0.12191437 0.29594108 0.2862909 0.29553977
-0.103161655 -0.18945523 0.25875536 0.13684164 -0.22559664 0.15671463 0.00046502767 -0.09381517
-0.10221726 0.3251315 0.114925474 0.16844931 0.032493472 -0.06793192 -0.31016883 0.15514655
0.19253433 -0.23101689 0.35309097 0.04358677 0.1391726 0.16737051 0.16062433 0.2285812
0.29553938 -0.1253844 0.06839516 0.09971909 -0.24920473 -0.24818559 0.18032001 0.14918426
0.05649324 0.17913935 0.004352906 -0.057044715 0.17117319 0.18458961 -0.0065151793 -0.012422508
0.1603853 -0.20640835 0.055647142 0.32347623 -0.15696304 0.17115177 -0.14131318 0.025561443
0.18719533 0.30225655 -0.06838034 0.15235445 0.037503406 0.22269087 0.036173023 0.030262109
0.09154999 -0.016575906 0.24016325 -0.23995122 -0.07309117 -0.100108 -0.11595351 0.101642184
-0.13601562 0.15599363 0.12662733 -0.2368446 0.059762754 -0.19078583 -0.15651779 0.029370388
0.11614174 0.2099951 -0.1639855 -0.053195085 -0.32439578 -0.10954935 -0.23517343 -0.14453939
0.23342237 -0.3070029 -0.23591076 0.03275776 0.17353776 -0.34161237 -0.26259306 0.1068213
-0.09923287 -0.14518458 -0.29942995 0.22222872 -0.2306774 -0.16428179 0.108722776 0.1333614
0.077735096 -0.32262954 0.20936379 0.182705 -0.3138495 -0.13279012 0.15984489 0.1025679
-0.2564444 -0.0073020686 0.01371096 0.14286011 -0.086078756 -0.07902385 0.14720704 0.14669898
0.17552443 0.34734523 0.1057876 -0.2688192 0.2197916 0.22350904 -0.029554902 0.18566453
-0.2009247 0.25515044 -0.066486634 0.17674516 0.064243935 0.12707916 0.32641447 -0.009370251
-0.0323532 0.2465775 0.17121111 -0.2431847 0.18903922 -0.2033594 -0.31430948 -0.031706955
0.11959911 -0.2555858 0.17224531 -0.055936243 0.19745743 -0.035241492 0.18277076 0.07736917
0.0041879355 0.057504103 0.237705 0.13351466 0.091133885 -0.05135282 -0.19825646 -0.1003435
0.05964222 0.061812896 -0.14263849 -0.011853517 -0.31239706 0.2594713 -0.09673463 -0.14229658
-0.04115115 -0.16273662 -0.25731862 0.26387516 -0.04688878 -0.34304428 0.087332144 -0.25463122
0.1643663 0.14004683 -0.05486045 -0.10462648 0.3355089 0.13536154 -0.27021924 -0.1944877
-0.060325198 0.08512002 0.0009142837 -0.057854533 -0.20012175 0.10246264 0.22795302 0.19698896
-0.14104994 -0.12798227 -0.005621478 -0.112291165 -0.10359509 -0.17793548 0.05697344 0.2067457
0.29921725 0.14011961 0.13520633 -0.13645984 0.019314094 -0.047708895 0.10172933 0.3132107
0.18962625 -0.14610228 0.18891063 0.07369881 0.20852432 -0.14585276 0.021342808 0.21890877
0.1427547 -0.05722805 -0.24314569 0.0066684424 0.09200816 0.08957988 0.26695615 0.01563323

lstm.weight_hh_l0 f4 [48, 12]
00000000: bbd6 9ebd 5be7 da3b 8d91 d2bd 7040 153e
00000010: 27b0 0c3e 494e 75bd 87f3 153e 1123 363e
00000020: 3d2e 923e b836 01be 6320 c3be c371 3e3e
00000030: f601 98bd a6b5 4b3c fa98 43be 683c 8cbe
00000040: 2286 553e 43e7 2cbb d6e3 bebd 4f6b 37be
00000050: 815b b4bd 3c0f 1f3e f43d 8dbe 4c9d ca3d
00000060: 5131 74be bef8 f63c c92a 97be 97f0 2e3e
00000070: dfb4 9a3c 100c b73e 628a 47be 6381 c03e
00000080: a5ae 8abe 01eb 43bd a10a eabd bbec ce3d
00000090: 85b8 b7bd b6aa 8e3d 999d 50be 8806 023e
000000a0: 4f95 3fbe ddb0 8bbe 1b37 19be 966c 203e
000000b0: ca5c 543e 333e eb3d 2617 b63d 3074 d73b
000000c0: 47ac e53d ecb0 babc 041b d7bd 7a3c babd
000000d0: 86d3 22be 3bae b03d b550 00bd b912 35be
000000e0: 5343 f63d 3b91 3e3d ea59 133e af71 a63e
000000f0: c4a1 4bbe 5f92 61be 74c2 a33e a83d cd3d
00000100: bb94 a53d 89c6 093d 4f3c 963d bf5e 93bd
00000110: d439 fb3d af61 9bbd 04d2 3ebe 54a1 ec3d
00000120: 24da c73e 81bf 863e fcc9 49be 82f3 463d
00000130: 52df c13b c1cf b6be 9c35 6dbe b193 3c3e
00000140: f09f abbc 707b 5fbd 9785 e8bd acf2 23bb
00000150: 66d7 cdbd 8298 b9bd 4bc4 0c3e 46bf 2f3e
00000160: 9c15 1ebe 7431 8d3d 4f1e 773e 205d 713e
00000170: 57d0 a4be 7317 813e 3001 1fbe df50 0e3e
00000180: ffe0 c43d 944a 1f3e 2329 a7be c8bc 88bd
00000190: 57a4 7bbe de51 523e 9a7a 9b3d 2248 8dbe
000001a0: 4aeb b8bd cfcf f03d 202a f03c d9c3 84bd
000001b0: ba66 81be 3834 6ebd 2403 5ebd eb47 8f3e
000001c0: 377f 803d c2dd 12be 1cde 82be 0e73 093c
000001d0: 3e4c c13d 5b64 ef3d d59e 7cbd 4410 12be
000001e0: 2482 65be 9ac7 a9be fc20 ae3d 1092 a4bd
000001f0: 8ecc 493e 234a 90be 990d 0d3e f153 003e
00000200: 0e5a cdbd f72f cdbd 7a43 3fbd ec36 0ebe
00000210: 5ff2 843e 47e3 f23d fc42 003e cef7 e23d
00000220: 3433 fdbd 9d3a 0dbe 5de1 283e 8100 f6bc
00000230: 9d29 9ebe 9448 6dbe bc1d 3f3e d970 963e
00000240: 9c17 01be 454f 0d3e cea4 88bd 6b7a b8be
00000250: 7a17 0b3e 1ae8 9c3d 6c55 863c 58be 553e
00000260: d2c1 023e 481e 42bd 2a5a ebbd bd06 a53e
00000270: bd3c 24be 6090 c03e 4b6e 50be 37b0 03be
00000280: c3bd 413e df88 b3be 339b 4abc 0216 59be
00000290: 791a 643d 7ca7 91be a43a 8abe 5c81 ac3d
000002a0: 4fcb e3bd 1fda e03d c7e8 633e d885 38be
000002b0: 7302 5f3e 9771 60be ecc3 413e 60b0 a13d
000002c0: 0cfb 8dbd 9425 52be 10e5 d8bd 4234 ccbd
000002d0: 549a 84bd b8a3 7abe eb03 53be 6534 65be
000002e0: 73ba 2abe dbf8 50be da4d 9dbd 7e4e 14be
000002f0: e69a 2ebe ae79 71be 3a86 923d ad3c 7d3d
00000300: 1430 4c3b 8b8b 843c 0e9c f83d 5b23 11be
00000310: ca26 61be fc05 2a3e f1b5 a23e 0aef 1b3e
00000320: 488d 393e b43f c1bd ba07 0bbe e82e 0cbb
00000330: 74e3 07be d671 d4bd 125d 193d ee93 a1be
00000340: 39e4 b83d f694 1fbe 4b3c d63b a84c 59be
00000350: 75c0 37be 2987 193b 680e c4bd b8f1 d23d
00000360: 2044 4fbe f662 243e aa96 45bd c767 a93e
00000370: 9119 343e 853a 0dbe db00 b0be fd18 b03c
00000380: b8be 893e 6a78 0f3d aa76 ba3d 4047 2d3e
00000390: c8b6 963d 84f4 f43d 357c 51be ef82 33bc
000003a0: d44f 1c3e f87c 903e d626 7ebd 5617 aabd
000003b0: 1bf7 3fbe 5a4b 8b3d aa67 aa3c 40f4 e23d
000003c0: fb69 ed3d da84 a33d 588b 5b3e f07b e23d
000003d0: a83b 7fbe 5cd4 793e 3473 4cbd 8641 c33b
000003e0: c4a0 103e 6796 8d3e cce4 a73e e204 07be
000003f0: 033c 483e cffa 3ebe 09a0 b73d 1df9 103c
-0.077558 0.0066804118 -0.10281668 0.14575362 0.13739072 -0.05988911 0.1464368 0.17786814
0.28550902 -0.1261853 -0.38110647 0.18598084 -0.07422249 0.012433445 -0.19101325 -0.27389836
0.20851949 -0.002638296 -0.093208 -0.17912029 -0.088065155 0.15533155 -0.2758633 0.09893283
-0.23846938 0.030147906 -0.2952483 0.17083965 0.018885074 0.3575139 -0.19486383 0.37598714
-0.27086368 -0.04783154 -0.114278086 0.101037465 -0.08970741 0.06966154 -0.20372619 0.12697804
-0.187093 -0.27283373 -0.14962427 0.15666422 0.20738521 0.11486473 0.08891134 0.00657513
0.112145 -0.022789441 -0.105032 -0.09093566 -0.15901002 0.08626982 -0.03132697 -0.17682923
0.1202456 0.04652522 0.14389768 0.3250861 -0.19885927 -0.22028492 0.31984293 0.100215256
0.08085009 0.033636604 0.07335722 -0.07195806 0.12266889 -0.07586991 -0.18634802 0.115542084
0.39033616 0.2631798 -0.19705957 0.04857207 0.0059165144 -0.3570538 -0.23164982 0.18415715
-0.020950288 -0.05456108 -0.11353605 -0.002501647 -0.100508496 -0.09062292 0.13746755 0.17162809
-0.15437931 0.06894198 0.24132656 0.2357068 -0.321902 0.25213203 -0.15527797 0.13898037
0.09613227 0.15555793 -0.32648572 -0.06676632 -0.2457441 0.20539042 0.07591744 -0.27594095
-0.09029253 0.11758386 0.029316962 -0.064826675 -0.25273687 -0.05815527 -0.054202214 0.27984557
0.06274264 -0.14342406 -0.2556008 0.008389248 0.0943837 0.11689063 -0.06167491 -0.14264017
-0.22412926 -0.33160096 0.08502385 -0.08035672 0.19706938 -0.28181562 0.13774718 0.12532021
-0.10026942 -0.10018914 -0.04669521 -0.13888139 0.25966164 0.11859756 0.12525553 0.11082421
-0.12363282 -0.1379189 0.1649222 -0.030029537 -0.30891123 -0.23172218 0.18663687 0.2938297
-0.12606663 0.1379977 -0.06672059 -0.36030897 0.13583174 0.07661457 0.016398154 0.20873392
0.12769249 -0.04739216 -0.11491807 0.32231703 -0.16038795 0.3761015 -0.20354573 -0.1286019
0.18920045 -0.35065362 -0.012366104 -0.21199802 0.05568931 -0.28448093 -0.26997864 0.08423111
-0.111227624 0.10979103 0.22256766 -0.18019807 0.21778278 -0.21918331 0.18922395 0.07894969
-0.06932649 -0.20522147 -0.10590565 -0.09970905 -0.06474748 -0.24476516 -0.20606963 -0.22383268
-0.16672687 -0.20407431 -0.07680865 -0.14483067 -0.17051277 -0.23581573 0.07154508 0.061825443
0.0031156586 0.01617982 0.1213914 -0.14173643 -0.21987453 0.16603845 0.31779435 0.15227905
0.18120301 -0.094359785 -0.13577166 -0.0021390263 -0.1327036 -0.10373275 0.037442274 -0.31558174
0.09027905 -0.15584168 0.006537949 -0.21220648 -0.1794451 0.002342651 -0.0957306 0.103000104
-0.20240831 0.16053376 -0.048239388 0.33086988 0.17587878 -0.13791855 -0.34375653 0.02149629
0.2690332 0.035026945 0.091046646 0.16921711 0.073590815 0.119607 -0.20457537 -0.01095651
0.15264827 0.28220344 -0.062048756 -0.08305232 -0.18746607 0.068014815 0.020801384 0.11081743
0.1159248 0.07984324 0.21439874 0.110587955 -0.24925101 0.24397415 -0.049914554 0.0059587387
0.14123827 0.2765381 0.32791746 -0.13185456 0.19554143 -0.18650363 0.08966071 0.008848456

lstm.bias_ih_l0 f4 [48]
00000000: 1d14 f53d 8925 1e3d 9621 60be dc01 d83d
00000010: d41e ecbd 5bc5 2a3e ddf5 c1bb 329b 8ebe
00000020: c792 013e 6425 4bbe 437b 863d 5b05 5bbe
00000030: 7f3d 5bbe bf3d c93e b25f 6cbe d6b0 83be
00000040: ca94 053d 4126 c83e 759b cc3d e467 843d
00000050: 16e2 533e e955 933e 33b2 96bd b469 703d
00000060: c404 8c3e 1b69 1c3d ba4a fe3d 4ae3 1cbe
00000070: 1c01 493e e6b1 0c3e 730b 4e3e 5210 25be
00000080: 4ee2 a03d 9201 013e 935a 1e3e 8b04 8dbe
00000090: c827 883e 8f48 953c b386 a03d 7265 44be
000000a0: 29c5 713e 7ad1 893e 3bcd 9d3e 73f3 74bd
000000b0: 62b7 8ebe c903 13be b5f8 733e 8963 69bd
0.11966727 0.038610015 -0.21887812 0.1054723 -0.115293175 0.16676848 -0.0059192018 -0.2785278
0.12653647 -0.19838482 0.06566479 -0.21388762 -0.21410178 0.3930492 -0.2308338 -0.25720853
0.0326126 0.39091685 0.099905886 0.06465128 0.20691714 0.28776482 -0.073582076 0.058694556
0.27347386 0.038186174 0.12416597 -0.15321079 0.1962933 0.13739738 0.20121555 -0.16119507
0.07855664 0.12598255 0.15464239 -0.2754253 0.2659285 0.018223075 0.07838192 -0.19179323
0.23610367 0.2691763 0.3082064 -0.059802484 -0.27874285 -0.14356913 0.23825343 -0.05697969

lstm.bias_hh_l0 f4 [48]
00000000: 9023 2f3e 7b5a 5cbe 84ec 27be 86dd 0d3d
00000010: 236e 653e b5df 5abe e076 133e 9fd1 99be
00000020: 63ec a0be af8a 28be b7ee 483e c896 0b3d
00000030: 3947 c4bc 5a78 4d3e 4bb6 89bd 2ea2 adbd
00000040: 4f2c 11be 813d 4ebc 6cce 9e3e 4509 48bd
00000050: a9d6 273d 887b 833e fe68 003e 3c3a db3d
00000060: 069c 573e 6737 bd3d 2b6b 92be d77d 36be
00000070: 12ed 673e a698 72be a473 5abd 7f68 563d
00000080: a606 1a3e ce82 12bd 00a9 82be c332 1dbe
00000090: 3a16 48be c64e 74bd cfae 0cbe 27b4 e7bd
000000a0: 104c b8bd b008 8b3e f99d 6e3e 2dca b03d
000000b0: f417 3b3e 45be 573d 37e7 4d3e e0a7 983e
0.1710341 -0.2151889 -0.16398817 0.03463509 0.22405295 -0.213744 0.14400816 -0.3004274
-0.3143035 -0.16459154 0.19622312 0.034079343 -0.023959743 0.20065442 -0.06724223 -0.08478199
-0.14177059 -0.012587906 0.31016862 -0.048836965 0.0409762 0.25680184 0.12540051 0.10704467
0.21055612 0.09239083 -0.28597388 -0.17821442 0.22649029 -0.23691043 -0.05333294 0.05234575
0.15041599 -0.035769276 -0.25519562 -0.15351395 -0.19539729 -0.059645437 -0.13738559 -0.11313658
-0.08998883 0.27155066 0.2330245 0.08632312 0.18270856 0.05267169 0.20107733 0.29815578

hidden2label.weight f4 [4, 12]
00000000: e3ec b5be ecdb 91be 4ab3 953e 4f4a 3abe
00000010: 7563 87be d8ea c93e cf8b 03be 4907 5e3d
00000020: f174 40bc cb87 8a3e 5f27 1fbd bd2e 063e
00000030: 8318 d53e 0e29 b73e 918c c5bc 042d 943e
00000040: 3866 0cbe 17d7 1cbe 9327 08bf f512 883e
00000050: 14cd 2ebe 919a 9a3e e46f e93d dfbb 89be
00000060: 6e0a 47be e90a 3f3e a598 293e 5452 543e
00000070: fe30 79bd e261 283e 1d3b e43d 231d 793e
00000080: b282 9abb 9e3f c9bd de2a 36be 6376 053e
00000090: e52f 013d 1865 aa3d 59b8 f8bd cef3 dfbd
000000a0: 63e5 1ebe 5da2 033e 37f0 883e 2615 903a
000000b0: 535d 543e d19b 273e c3c0 893d dac1 2ebd
-0.35532293 -0.284881 0.2923835 -0.18192409 -0.26443067 0.39436984 -0.12846301 0.054206166
-0.011746631 0.27056727 -0.038855907 0.13103767 0.41620263 0.3577351 -0.024114879 0.28940594
-0.13710868 -0.15316425 -0.53185385 0.26576963 -0.17070419 0.3019605 0.113982946 -0.26901147
-0.19437572 0.18656506 0.16562136 0.2073453 -0.06083774 0.1644359 0.111440875 0.24327521
-0.004715287 -0.09826587 -0.1778979 0.13033442 0.031539816 0.08320063 -0.121445365 -0.10935174
-0.15517192 0.12854905 0.2674577 0.0010992631 0.20738725 0.16368033 0.067262195 -0.04266534

hidden2label.bias f4 [4]
00000000: 6e3f c63c 89d5 88bc f7e2 423e 44dd 6d3e
0.024200168 -0.016703384 0.19031893 0.23228937
